model/simple_tag/agent_0/actor_params.pkl (torch_old, 40203 bytes, 8 tensors)

fc1.weight f4 [64, 16]
0	0x3edf60cb	0.43628535
1	0xbf436fc4	-0.76342416
2	0xbe6882f5	-0.22706206
3	0x3e94e5c2	0.2908154
4	0x3e4504a5	0.19240053
5	0x3f0bc0a1	0.54590803
6	0xbec2f3d6	-0.38076657
7	0xbe7df820	-0.24801683
8	0xc04cd16f	-3.2002828
9	0xc001c8ef	-2.027889
10	0xbd9936aa	-0.074811295
11	0x3fe6f1d3	1.8042549
12	0x3d67d695	0.056601126
13	0xbfc315c0	-1.5241013
14	0xbfc4976a	-1.5358708
15	0x3f73e1a6	0.9526619
16	0x3ed9e9f7	0.42561314
17	0x3c8ed3bb	0.017434945
18	0xbcb8602a	-0.022506792
19	0x3e997c6e	0.29977745
20	0x3edefce4	0.43552315
21	0x3d77143d	0.060322035
22	0xbedd1506	-0.43180102
23	0x3e891102	0.26770788
24	0x3d806982	0.06270124
25	0xbe5ab939	-0.2135972
26	0x3f20f6f1	0.628768
27	0x3d52daae	0.05147808
28	0x4013d50b	2.309878
29	0xc0ec3359	-7.381268
30	0xbf16a427	-0.58844227
31	0xbd92cad8	-0.071675956
32	0xbfa6c1db	-1.302791
33	0xbf47dd5e	-0.78072155
34	0x3ea3ba26	0.31977957
35	0xbf4849e1	-0.7823773
36	0x3f2f1ae7	0.68400425
37	0x3e43c4f5	0.19118102
38	0xbeb8996b	-0.3605455
39	0xbf78f78f	-0.97252744
40	0xbeda0f16	-0.42589635
41	0x3e17f49b	0.14839403
42	0xbe14b5f0	-0.14522529
43	0xbf20f484	-0.628731
44	0xbff85ef1	-1.9403974
45	0xc08e5ee3	-4.449083
46	0x3efc669a	0.4929703
47	0x3ed7e4d4	0.4216677
48	0x3fcf96c0	1.621788
49	0xbf267107	-0.65016216
50	0x3eb051bc	0.34437358
51	0xbe8f1112	-0.2794271
52	0x3e98c891	0.2984052
53	0x3dfb929a	0.122838214
54	0x3d11d157	0.035600033
55	0xbee1b294	-0.44081557
56	0xbf10024a	-0.5625349
57	0x3f52e167	0.82375187
58	0xbf0f081a	-0.55871737
59	0x3d10f659	0.035391185
60	0xc0545aa9	-3.3180335
61	0x3f75e074	0.96045613
62	0xbf672ec0	-0.9030571
63	0xbf01cb34	-0.5070069
64	0xbe8e2de4	-0.27769387
65	0x3e143e7a	0.14476958
66	0xbecc316c	-0.39881456
67	0xbee84811	-0.45367482
68	0xbe2749b9	-0.16336717
69	0x3f923b06	1.1424263
70	0xbea0fcd5	-0.31442896
71	0xbfb964a6	-1.448384
72	0x3f1a3205	0.60232574
73	0xbd8799d4	-0.06621137
74	0xbf2389ac	-0.63881946
75	0x3f59f83e	0.8514441
76	0x3eba9e76	0.3644902
77	0xc08dd741	-4.432526
78	0x3ea8116d	0.32825795
79	0xbf0d6463	-0.552313
80	0x3ee3af10	0.444695
81	0x3f1823c0	0.5942955
82	0xbf6ccfd8	-0.92504644
83	0x3ea48401	0.3213196
84	0xbf807a33	-1.0037292
85	0x3e6e71e3	0.23285632
86	0x3db32872	0.08747949
87	0x3b85797a	0.004073319
88	0xbfa518b4	-1.2898164
89	0x3f5e2b54	0.86784863
90	0xbf12458b	-0.57137364
91	0x3fc1990b	1.512483
92	0xc050b825	-3.2612393
93	0x4095cfa6	4.6815977
94	0x3cc171d9	0.023613857
95	0xbf94d55a	-1.162761
96	0xbe9b5aed	-0.30342808
97	0xbdbcac5d	-0.09212563
98	0x3d06e697	0.03293475
99	0xbe9af4f3	-0.30265006
100	0xbf42a8d2	-0.7603885
101	0x3de1a3cd	0.11017571
102	0x3f49a4f1	0.78767306
103	0xbebee95b	-0.3728741
104	0x3f258593	0.64656943
105	0x3f5689f7	0.8380427
106	0x3ecac2fd	0.3960189
107	0xbef8baa0	-0.48579884
108	0xbe1f7b08	-0.15574276
109	0x3fc8dfe6	1.5693328
110	0xbf212393	-0.62944907
111	0x3f5c2b71	0.86003786
112	0xbf9514ad	-1.1646935
113	0xbfc726f9	-1.5558769
114	0xbeccbe15	-0.3998877
115	0xbf36e375	-0.7144082
116	0xbf147da9	-0.5800424
117	0xbe39e05b	-0.18151991
118	0x3e5c2383	0.21497922
119	0xbf16b761	-0.58873564
120	0x3dc8542e	0.09781681
121	0x3fc7f4f8	1.5621634
122	0x3fbb1d1c	1.4618258
123	0x3fff171a	1.9928925
124	0xbff3f1b2	-1.9058135
125	0xc00784b7	-2.1174753
126	0x3db83aed	0.08995614
127	0x3c119226	0.008884942
128	0xbedf995d	-0.43671694
129	0x3b5124ff	0.003191292
130	0xbe1c0635	-0.15236743
131	0xbe96b0ca	-0.29431754
132	0xbe7aaf64	-0.24480969
133	0xbe628f19	-0.221249
134	0x3e3154e7	0.17317544
135	0xbd1a5e73	-0.03768773
136	0xbf079e2d	-0.5297573
137	0x3eb43d24	0.35202897
138	0x3fc6415c	1.5488696
139	0x400afdbd	2.171737
140	0x40d86788	6.762638
141	0x3fac330f	1.3453082
142	0x3eb184a0	0.34671497
143	0x3ec2dbb3	0.38058242
144	0x3eea359b	0.45744023
145	0xbacf1718	-0.0015799729
146	0x3ebb55a8	0.36588788
147	0xbe833d18	-0.25632548
148	0x3e4dacbe	0.20085427
149	0xbf791ff9	-0.9731441
150	0x3e61c80b	0.22048967
151	0x3f2346fa	0.63780177
152	0xbec9d1b1	-0.39417794
153	0x3f10eb24	0.56608796
154	0x3e93ad18	0.28842998
155	0x3f5a0eed	0.85179025
156	0xc0b8235c	-5.7543163
157	0x4024f23e	2.5772853
158	0xbdd57b74	-0.104239374
159	0xbd862da1	-0.06551672
160	0x3eb3d061	0.35119918
161	0xbb6b7937	-0.0035930404
162	0x3e1463dd	0.1449122
163	0xbe9991a3	-0.29993924
164	0x3e2fde3c	0.1717462
165	0xbedaad5c	-0.42710388
166	0xbd86fae2	-0.06590821
167	0x3db6b105	0.089204825
168	0x3fe05c88	1.7528238
169	0x3f6180f1	0.88087374
170	0xc03522ae	-2.8302417
171	0x3e288494	0.16456825
172	0xc03b3184	-2.9248972
173	0xc0543b5a	-3.3161225
174	0x3fad3fc6	1.3535087
175	0x3f35021a	0.7070633
176	0xbe3b241d	-0.18275495
177	0xbe94e733	-0.2908264
178	0x3d110939	0.035409186
179	0x3e08189a	0.13290635
180	0x3eb3afb5	0.3509499
181	0xbe106298	-0.1410011
182	0xbea4ad9a	-0.32163697
183	0x3e83ccf4	0.25742304
184	0x4004e310	2.0763588
185	0x3fc4651b	1.5343355
186	0x3f64ee89	0.89426476
187	0x3f117c0e	0.5682992
188	0xc029d486	-2.6535964
189	0xbf609e0a	-0.8774115
190	0xbf6a4cac	-0.9152324
191	0x3ddd4922	0.108049646
192	0x3ec86181	0.3913689
193	0xbf1a8f4a	-0.6037489
194	0xbe56f8d6	-0.20993361
195	0xbcc47c3d	-0.023985023
196	0x3e23ac73	0.15983753
197	0x3f3a52f4	0.72782826
198	0xbec22e01	-0.37925723
199	0xbf281d32	-0.6566955
200	0x3f86ff89	1.0546733
201	0xbf643675	-0.89145595
202	0x3f683eb3	0.9072067
203	0xbf724de0	-0.9465008
204	0x40cccf41	6.4002995
205	0xc0352c3f	-2.8308256
206	0xbf8dee68	-1.1088381
207	0x3ee01e7b	0.43773255
208	0x3f85e511	1.046053
209	0xbf418b67	-0.75603336
210	0xbf00e5a9	-0.50350434
211	0xbe8e745b	-0.27823147
212	0x3d813f69	0.06310923
213	0xbefc6c55	-0.493014
214	0xbf0ef7b7	-0.5584673
215	0x3e7d2a19	0.2472309
216	0xbea58c88	-0.3233378
217	0x3d7115c7	0.05885866
218	0xbd883216	-0.06650178
219	0x3f2f682d	0.68518335
220	0x40dcaee9	6.8963513
221	0xc033ee3c	-2.8114157
222	0x3ec9b4e3	0.39395818
223	0xbf9c2511	-1.2198812
224	0x3f7c3548	0.985188
225	0x3f32b87a	0.6981274
226	0xbd995716	-0.074873134
227	0x3f61c60d	0.88192827
228	0x3edfe836	0.4373185
229	0x3df9e4b6	0.12201826
230	0xbf076c21	-0.52899367
231	0x3f43879a	0.76378787
232	0x3fb97085	1.4487463
233	0xbf27b210	-0.65506077
234	0x3f2e9da7	0.6820931
235	0xbf35fedf	-0.7109203
236	0x4005761b	2.0853336
237	0xc0796952	-3.8970532
238	0x3d742f45	0.059615392
239	0xbf209252	-0.6272327
240	0xbf0d333b	-0.55156296
241	0xbea699b0	-0.3253913
242	0x3f496bf0	0.78680325
243	0x3f218ff5	0.63110286
244	0x3e84e103	0.2595292
245	0x3e9134c1	0.2836056
246	0x3f08321c	0.5320146
247	0x3e9235f8	0.285568
248	0x3f16f996	0.5897459
249	0x3f393c07	0.7235722
250	0xbf1a6835	-0.6031526
251	0x3ee6e14d	0.45093766
252	0xbf908f2b	-1.1293691
253	0x41063c4d	8.389722
254	0x3ec42059	0.3830593
255	0xbdcbd4d7	-0.09952705

fc1.bias f4 [64]
0	0xbc99bdf4	-0.018767335
1	0x3fcb122b	1.586492
2	0x3f9830d3	1.18899
3	0xbebc9fe6	-0.36840743
4	0xbf3a3173	-0.72731704
5	0x3f5c7438	0.86114836
6	0x3fa09a7c	1.2547145
7	0xbe8516f3	-0.2599407
8	0xbe31a830	-0.17349315
9	0x3e166ee9	0.14690746
10	0x3e8650ba	0.26233464
11	0xbeba5168	-0.36390233
12	0x3f8b13db	1.0865434
13	0x3fb0bb7c	1.3807216
14	0x3f05da69	0.5228639
15	0x3f2d6119	0.67726284
16	0x3fba85af	1.4572047
17	0x3fb16d72	1.3861525
18	0x3f8797b2	1.0593169
19	0x3e95cbbe	0.29257005
20	0x3f2f4e1d	0.68478566
21	0x3f6c0a3f	0.92203134
22	0x3f34ccf8	0.7062526
23	0x3f2730fe	0.6530913
24	0x3f13fe28	0.57809687
25	0x3ff3517b	1.9009241
26	0xbf096fab	-0.53686017
27	0x3f76f7cd	0.96471864
28	0x3f495f0e	0.78660667
29	0x3fb572ae	1.4175622
30	0x3fdf6de8	1.7455416
31	0xbf79da41	-0.97598654
32	0x3faa65d1	1.3312322
33	0x3fb6eeb6	1.4291599
34	0x3f9c7495	1.2223078
35	0x3f3d365e	0.7391108
36	0x3f37a0fa	0.71730006
37	0x3fb27da8	1.3944597
38	0x3f59fd9c	0.851526
39	0x3f443610	0.7664499
40	0xbe85e146	-0.26148432
41	0xbdcca09f	-0.099915735
42	0x3fb2b7f5	1.3962389
43	0x3eceb841	0.4037495
44	0xbf82e64e	-1.0226533
45	0xbec3d9cd	-0.38252106
46	0x3f2ad7c9	0.6673551
47	0xbf0851e5	-0.5324996
48	0x3fca393f	1.579872
49	0x3e92d999	0.2868164
50	0x3f7e809e	0.99415004
51	0xbcdb560a	-0.026774425
52	0x3f410a62	0.7540647
53	0x3edad1c3	0.4273816
54	0x3f530f58	0.8244529
55	0x3e88ab42	0.2669316
56	0x3f8d05b8	1.101737
57	0x3eff1a1f	0.49824616
58	0xbc851d16	-0.01624922
59	0xbfa0adfd	-1.2553097
60	0x3f00183f	0.50036997
61	0x3f12a2bb	0.57279557
62	0x3f198857	0.59973663
63	0x3f83ab94	1.0286736

fc2.weight f4 [64, 64]
0	0x3ef837f0	0.48480177
1	0x3f77ddfd	0.968231
2	0x3ef038fb	0.46918473
3	0xbef27340	-0.47353554
4	0x3f24370a	0.6414648
5	0xbf1ee317	-0.6206526
6	0x3f9a2290	1.2041798
7	0xbee40fff	-0.44543454
8	0xbef49368	-0.47768712
9	0xbeb82c49	-0.35971287
10	0x3ec1256c	0.37723863
11	0x3ece9e71	0.40355256
12	0x3f640a20	0.8907795
13	0x3e9b1433	0.30288848
14	0x3e4adac4	0.19810015
15	0xbf69bb90	-0.9130182
16	0x3f4c9b85	0.79924804
17	0x3f0e29ca	0.55532515
18	0xbf09df7b	-0.5385663
19	0x3ddc3b88	0.10753542
20	0xbe50af7f	-0.20379446
21	0xbec4cbab	-0.38436636
22	0xbdbcb1dc	-0.092136115
23	0xbf857f5c	-1.0429492
24	0xbf76ad3a	-0.9635807
25	0xbd2311e7	-0.039811995
26	0x3f07435e	0.5283717
27	0x3f914290	1.1348438
28	0xbe27a9c5	-0.16373356
29	0x3ca1bc64	0.019743152
30	0x3ef15464	0.47134697
31	0xbeed105c	-0.46301544
32	0x3f092422	0.5357076
33	0xbe9f81db	-0.3115376
34	0x3f1b3bda	0.606382
35	0xbebd51c0	-0.36976433
36	0xbe07c57d	-0.1325893
37	0x3e62bb5c	0.22141784
38	0x3f0fb39e	0.5613345
39	0x3f1a7fc9	0.60351235
40	0xbe5b7e8f	-0.21434997
41	0x3eba0a09	0.3633578
42	0x3dd3607c	0.10321137
43	0x3e9a7a33	0.30171356
44	0xbf02bdb2	-0.510707
45	0xbe8fc48a	-0.28079635
46	0xbe7d531f	-0.2473874
47	0x3e2d9b85	0.16953857
48	0xbecb23a4	-0.3967563
49	0x3f0caf80	0.5495529
50	0xbdd0cb39	-0.10195012
51	0x3d312812	0.043251105
52	0x3edadcd2	0.42746598
53	0x3e14ef7f	0.14544486
54	0xbeb90162	-0.36133868
55	0xbf3cb48f	-0.7371301
56	0x3f3bd76a	0.7337557
57	0x3d01b8ec	0.031670496
58	0xbe9b632e	-0.30349106
59	0xbec540dc	-0.38526046
60	0x3e765375	0.24055274
61	0xbe41dbf3	-0.1893156
62	0x3dcaf279	0.09909529
63	0x3dbe80c9	0.093019076
64	0xbff992a9	-1.9497882
65	0x3f3db6b9	0.7410694
66	0xbefa83d9	-0.48928717
67	0xbe62ae20	-0.22136736
68	0xbe78cb95	-0.2429641
69	0xbf8574da	-1.0426285
70	0xbdf9d785	-0.1219931
71	0xbef90c63	-0.48642263
72	0xbe811bcf	-0.2521653
73	0xbf5ad9a3	-0.8548834
74	0x3f65cc5a	0.8976494
75	0x3f2adc7c	0.6674268
76	0xbef9b2c0	-0.48769188
77	0x3dbdd861	0.092697866
78	0xbd0828e9	-0.03324214
79	0x3e0d3707	0.13790523
80	0x3e8728bd	0.26398268
81	0xbf23e96a	-0.64028037
82	0x3f639cee	0.8891133
83	0x3e7c4cec	0.24638718
84	0x3f5a8f86	0.8537525
85	0x3e908809	0.28228787
86	0x3e2e0f62	0.16998056
87	0xbe82e757	-0.25567123
88	0xbcb55490	-0.02213505
89	0xbed4ae84	-0.41539395
90	0xbf7b3ad8	-0.98136663
91	0x3eca29ca	0.39485008
92	0xbeb91a81	-0.36153033
93	0x3dc5a150	0.096499085
94	0xbe41bdce	-0.18920061
95	0xbf95594a	-1.1667874
96	0x3ef4293a	0.47687703
97	0xbdbdff93	-0.092772625
98	0x3ef054d1	0.4693971
99	0x3d146840	0.036232233
100	0x3dbdcbaa	0.092673615
101	0x3ee9569b	0.45573887
102	0xbdd95de3	-0.106136106
103	0xbf785d42	-0.970173
104	0x3e02eb48	0.12785065
105	0xbef8ebf2	-0.48617512
106	0x3f1a3620	0.6023884
107	0xbeaf5d60	-0.34250927
108	0x3ba1b2de	0.0049346527
109	0xbf2d9446	-0.6780437
110	0x3f10ccac	0.56562304
111	0xbd933518	-0.07187861
112	0xbfb13b3b	-1.3846201
113	0x3e8879e9	0.2665551
114	0xbf81da5f	-1.0144767
115	0x3e10b212	0.14130428
116	0xbe88a91b	-0.26691517
117	0xbeb15a31	-0.34639123
118	0xbee2fa1b	-0.4433144
119	0xbeaab985	-0.33344665
120	0x3f3c14b6	0.734691
121	0x3f1671fe	0.5876769
122	0xbe00b2a1	-0.12568142
123	0xbe1b6cf0	-0.15178275
124	0xbe7a45bc	-0.24440664
125	0x3eb15719	0.34636763
126	0x3efcef09	0.4940112
127	0x3e9fa83f	0.3118305
128	0x3f22cc15	0.63592654
129	0xbefe91aa	-0.49720508
130	0x3d99effc	0.075164765
131	0xbe169e50	-0.14708829
132	0x3ec397ac	0.38201654
133	0x3e00b645	0.1256953
134	0x3ee11cc8	0.4396727
135	0x3edb3a28	0.42817807
136	0x3eab3699	0.33440092
137	0xbf8fb3dc	-1.1226764
138	0x3eb00cab	0.34384665
139	0xbe46bb3b	-0.1940736
140	0x3d379eed	0.044829298
141	0x3f0139bc	0.5047872
142	0xbd13c7fd	-0.036079396
143	0x3f940792	1.156481
144	0xbe876764	-0.26446068
145	0x3ebfc16a	0.3745225
146	0x3eb67dd1	0.35642865
147	0x3de437fa	0.11143489
148	0xbf27ef65	-0.6559966
149	0xbf27d244	-0.65555215
150	0x3f076bb6	0.5289873
151	0x3f114873	0.56751174
152	0x3edc3afa	0.43013746
153	0x3f730928	0.94935846
154	0xbf35c3ea	-0.71002066
155	0xbe94ddec	-0.29075563
156	0xbf3e7215	-0.74392825
157	0xbfac6d23	-1.3470806
158	0x3ea231d6	0.31678647
159	0x3eb216da	0.3478306
160	0x3f98ec90	1.1947193
161	0x3f8e714c	1.1128325
162	0xbe0ccd86	-0.13750276
163	0x3ec6fc06	0.38864154
164	0xbe5a4618	-0.21315801
165	0x3f3868c9	0.7203489
166	0xbe555c2a	-0.20835939
167	0xbe38f754	-0.18063098
168	0x3dd89e45	0.105770625
169	0xbe8b5173	-0.27210578
170	0xbca79081	-0.020454647
171	0xbcd25916	-0.025677245
172	0x3f1067e0	0.564085
173	0x3e85524a	0.26039344
174	0x3e4777af	0.1947925
175	0xbf47a2b3	-0.77982634
176	0xbeabf02d	-0.33581677
177	0x3e5f751a	0.21822014
178	0x3c26cf78	0.0101813
179	0x3f4034cb	0.75080556
180	0x3d70bac7	0.058771875
181	0xbdb7781d	-0.08958457
182	0xbe9018df	-0.28143975
183	0xbf008242	-0.5019876
184	0x3ebb0cde	0.36533254
185	0x3ee173ec	0.44033754
186	0x3f5ab1f2	0.85427773
187	0x3e0e1e93	0.1387885
188	0x3e87cde4	0.2652427
189	0x3ed26c3e	0.41098207
190	0x3da5510d	0.080721
191	0x3d7a8e6c	0.06117098
192	0xbfbd84de	-1.4806173
193	0x3f4870d0	0.7829714
194	0x3e07ed65	0.13274153
195	0xbefc1f5d	-0.49242678
196	0x3e558167	0.20850144
197	0xbef09049	-0.4698508
198	0xbd5fd042	-0.05464197
199	0x3eb0b884	0.34515774
200	0xbf01e34a	-0.5073744
201	0xbe4edbab	-0.20200984
202	0x3e59bffd	0.21264644
203	0x3f471c33	0.77777404
204	0x3f067192	0.52517045
205	0x3e0a9dbf	0.13536738
206	0x3f324c96	0.6964811
207	0xbed4a2e5	-0.4153053
208	0xbf1414d4	-0.5784428
209	0x3f49209e	0.78565395
210	0x3f5f5d99	0.87252194
211	0xbe9da166	-0.307872
212	0x3bd958e2	0.00663291
213	0x3f498b25	0.7872794
214	0xbe4c549e	-0.19954154
215	0x3f3532d1	0.70780665
216	0xbf1db232	-0.6160003
217	0xbf289b03	-0.6586153
218	0x3e4d6f00	0.20061874
219	0x3f17ca5f	0.5929317
220	0xbe3a8bd6	-0.18217406
221	0xbd81051b	-0.06299802
222	0x3f05a82f	0.5220975
223	0xbeef8787	-0.46783087
224	0x3f02cade	0.510908
225	0x3e397552	0.1811116
226	0xbf0d5c04	-0.5521853
227	0x3e9e7ba7	0.30953714
228	0xbfaf33c0	-1.3687668
229	0x3f94a9f1	1.1614362
230	0xbeca5f26	-0.39525717
231	0xbf645ba5	-0.8920234
232	0x3d8c124f	0.068394296
233	0x3f396300	0.72416687
234	0x3d8b2862	0.06794812
235	0xbeeb448d	-0.45950738
236	0xbd71ae3e	-0.05900406
237	0xbec6650b	-0.38748965
238	0xbd9d43f5	-0.076789774
239	0xbf583af6	-0.8446497
240	0xbf72b64b	-0.94809407
241	0x3fb03f8e	1.3769395
242	0x3f1473e6	0.57989347
243	0x3f3a9f0a	0.72898924
244	0xbf38ed8f	-0.72237486
245	0x3f1997e8	0.59997416
246	0x3de15df5	0.11004249
247	0xbef43369	-0.47695473
248	0x3fa6ac8f	1.3021411
249	0x3d78e1ad	0.060762096
250	0xbcf2f8cc	-0.029659651
251	0x3e3c8945	0.18411739
252	0xbfb0168b	-1.375688
253	0x3f03af50	0.5143938
254	0x3f098ac5	0.5372737
255	0x3ec4a859	0.3840969

fc2.bias f4 [64]
0	0x3f556821	0.83362013
1	0x3dc30286	0.09521966
2	0x3ea8f9c7	0.33003065
3	0x3efb8db5	0.4913155
4	0x3e4204e8	0.18947184
5	0xbf8b3a7e	-1.0877225
6	0xbf1370f4	-0.5759423
7	0x3eb8fada	0.36128885
8	0x3f2f2c49	0.6842695
9	0x3bc542b4	0.0060199145
10	0xbe371080	-0.17877388
11	0x3e8c4e56	0.27403516
12	0x3ec72dce	0.38902134
13	0xbd9079d2	-0.070544854
14	0xbe9e81de	-0.30958456
15	0x3f3be2d5	0.73392993
16	0x3cab34e1	0.020899238
17	0xbf4d3ce4	-0.80171037
18	0xbf15a718	-0.5845809
19	0xbe8557ec	-0.26043642
20	0x3dfad923	0.12248447
21	0xbf5b96d8	-0.85777044
22	0x3d1d5268	0.038408667
23	0xbe9811c1	-0.29701045
24	0x3f138a06	0.5763248
25	0xbe9716ef	-0.29509684
26	0xbe22dc2c	-0.15904301
27	0xbf2d1453	-0.6760914
28	0xbf22f411	-0.63653666
29	0x3e9c3147	0.30506346
30	0xbf55ffa2	-0.8359319
31	0xbe5df40a	-0.21675125
32	0x3e5c0734	0.21487123
33	0x3ee4224e	0.44557422
34	0x3f02e8e2	0.511366
35	0xbeb34517	-0.3501365
36	0xbdb0042e	-0.08594547
37	0x3f0ee1a7	0.5581307
38	0xbf8b11e8	-1.086484
39	0x3ed1656b	0.40897688
40	0x3eca01ff	0.39454648
41	0x3f6b16c3	0.91831607
42	0xbcfe033d	-0.031007404
43	0x3e890c9f	0.26767442
44	0xbc862139	-0.016373264
45	0xbeb602cc	-0.3554901
46	0xbeac24d1	-0.3362184
47	0xbe843a2a	-0.25825626
48	0x3cef8f9b	0.029243281
49	0xbe362a6c	-0.1778962
50	0xbd06815d	-0.032838214
51	0xbf3775e9	-0.7166429
52	0xbe54967b	-0.20760529
53	0x3e353ec9	0.17699732
54	0xbe875e00	-0.26438904
55	0x3f50318f	0.8132562
56	0x3c4e69e1	0.012598486
57	0xbe6e2abb	-0.23258488
58	0x3f16f4f2	0.58967507
59	0xbe177a7f	-0.14792822
60	0x3f1fec4d	0.6246994
61	0x3e7d16b3	0.2471569
62	0xbeaa8d0e	-0.3331074
63	0x3e7ba43a	0.24574366

fc3.weight f4 [64, 64]
0	0x3f64d5f5	0.8938897
1	0x3e5d092f	0.21585535
2	0x3eb2f755	0.34954324
3	0xbf0af3c6	-0.5427822
4	0x40087815	2.1323292
5	0xbf9c18d7	-1.219508
6	0xbff5a010	-1.9189472
7	0xbf10d7e0	-0.565794
8	0x3fa60d18	1.2972746
9	0x3f095e19	0.53659207
10	0x3eec82e3	0.4619361
11	0xbf7c6408	-0.98590136
12	0x3bc2050e	0.0059210127
13	0x3ec19d7e	0.3781547
14	0x3f6328ba	0.8873402
15	0x3ed1a49b	0.40945897
16	0x3ef6e9c5	0.48225227
17	0xbbbdd5a1	-0.005793289
18	0xbf260834	-0.64856267
19	0xbe987d40	-0.29783058
20	0x3ef88d6b	0.48545393
21	0xbf0eb9ec	-0.55752444
22	0x3e16ec2c	0.1473853
23	0x3f56240a	0.8364874
24	0x3e45d792	0.19320515
25	0xbf8e9fd3	-1.1142524
26	0x3e4c71a6	0.19965228
27	0x3eb9c01b	0.36279377
28	0xbfa9f2bc	-1.3277202
29	0xbe8621df	-0.26197717
30	0xbe3208c0	-0.1738615
31	0xbfb279ab	-1.394338
32	0x3e6f5af2	0.23374537
33	0xbf227073	-0.63452834
34	0xbe88dd5b	-0.2673138
35	0xbd0ce638	-0.03439924
36	0xbfb678eb	-1.4255651
37	0x3e44af93	0.19207601
38	0x3e138bf7	0.14408861
39	0x3ec3cd6f	0.3824267
40	0x3ec25c6e	0.37961143
41	0x3f078737	0.52940696
42	0xbde97b32	-0.11400451
43	0xbf656292	-0.8960353
44	0xbb6a3944	-0.00357397
45	0xbea3c7a4	-0.3198825
46	0xbeaa24fe	-0.33231348
47	0xbf934a8f	-1.1507128
48	0x3eea969f	0.4581804
49	0x3eac542c	0.33657968
50	0x3f065402	0.52471936
51	0xbebd1b21	-0.3693476
52	0x3e999e23	0.3000346
53	0x3e1883ed	0.14894076
54	0xbf20b019	-0.62768704
55	0xbd0e2493	-0.03470285
56	0xbf710de6	-0.9416183
57	0xbe440c2e	-0.19145271
58	0xbe2ad662	-0.16683343
59	0xbcd136c3	-0.025538808
60	0xbefc9df4	-0.4933926
61	0x3f65845d	0.89655095
62	0x3d4bd45a	0.04976306
63	0x3fa37fe9	1.277341
64	0xbda2fd29	-0.07958443
65	0x3c6943c3	0.014237347
66	0x3c022c0b	0.007945071
67	0xbe1ac9dd	-0.15116067
68	0x3c3f8c8c	0.011691224
69	0xbe028ace	-0.12748262
70	0xbcc344f0	-0.023836583
71	0xbe25d1c7	-0.16193305
72	0xbe19e2f6	-0.15027985
73	0xbd893b17	-0.067007236
74	0xbd1f979c	-0.038962945
75	0xbd7d8ffc	-0.061904892
76	0xbdff6fe7	-0.124725156
77	0xbcc2aeef	-0.023765055
78	0xbc866b4e	-0.016408589
79	0xbcfcec54	-0.030874409
80	0xbaea79d6	-0.0017889093
81	0xbd9d21d6	-0.07672469
82	0xbcf7ee8c	-0.030265115
83	0xbe019fe6	-0.12658653
84	0xbd399bee	-0.04531472
85	0xbe0b69dd	-0.13614602
86	0xbde77a37	-0.113026075
87	0xbdfa2a8e	-0.12215148
88	0xbdb1ae13	-0.0867578
89	0xbdf6f0bf	-0.120576374
90	0xbc773bf0	-0.015089974
91	0xbd1776e5	-0.03697862
92	0xbdc4402e	-0.09582554
93	0xbe30d1c4	-0.17267519
94	0x3c69f474	0.014279474
95	0xbdd4f88d	-0.1039897
96	0x3d33a1f9	0.04385564
97	0xbdfda2ea	-0.12384589
98	0xbe3edba1	-0.1863847
99	0xbd5e7cd7	-0.054318275
100	0xbd9ec4a1	-0.07752348
101	0xbd8cfc3f	-0.068840496
102	0xbd3189c1	-0.043344263
103	0x3c3697f3	0.011144626
104	0xbe33d158	-0.17560327
105	0xbcf10c3b	-0.029424777
106	0xbdb9d94e	-0.09074651
107	0xbe157308	-0.14594662
108	0xbb9a8f5d	-0.0047167973
109	0x3d30a380	0.043124676
110	0xbda7b0fc	-0.08188054
111	0xbd874a3e	-0.066059574
112	0x3d7d5a03	0.06185342
113	0x3dc2d16a	0.09512599
114	0x3d7982a8	0.06091562
115	0xbd9874fd	-0.07444189
116	0xbd0c6716	-0.034277998
117	0xbdcf3403	-0.10117342
118	0x3cf6b99d	0.030117804
119	0x3b1befb3	0.0023793995
120	0xbdf3be58	-0.119015396
121	0x3c7e6c69	0.015528777
122	0xbd252c1d	-0.040325273
123	0x3bd20de5	0.0064103478
124	0x3cf1fe3f	0.02954018
125	0xbd700205	-0.058595676
126	0xbe23763f	-0.15963076
127	0xbc7bb391	-0.015362636
128	0xbe77f30f	-0.24213813
129	0x3f8247cc	1.0178161
130	0x3f17ba20	0.5926838
131	0x3ee05fde	0.4382314
132	0xbdfadbec	-0.12248978
133	0xbf862891	-1.048113
134	0xbeaf2c80	-0.34213638
135	0x3e7baf2a	0.24578539
136	0xbeeb7342	-0.45986372
137	0x3fcf9739	1.6218024
138	0xbdeb2851	-0.11482299
139	0x3e7399f0	0.23789191
140	0x3eb9b0ba	0.36267644
141	0x3f4e4086	0.80567205
142	0x3e1b8881	0.15188791
143	0x3ed429d0	0.4143815
144	0x3f47ac2d	0.77997094
145	0x3db776d5	0.08958212
146	0xbf5a1d6c	-0.85201144
147	0x3f143070	0.5788641
148	0x3f8d0a7e	1.1018827
149	0x3e8ca978	0.27473044
150	0xbea75d30	-0.32688284
151	0x3fa1c08b	1.2636884
152	0xbf7843cd	-0.96978456
153	0xbf63d015	-0.88989383
154	0xbc8db28e	-0.017297056
155	0xbf47c806	-0.78039587
156	0xbf997143	-1.198769
157	0x3c956f18	0.01824145
158	0xbf5f4232	-0.8721038
159	0xbee3a321	-0.44460395
160	0xbee0cd01	-0.43906406
161	0xbec0ffce	-0.37695163
162	0xbf128109	-0.5722814
163	0xbed134eb	-0.40860686
164	0xbf45b4ad	-0.77228814
165	0x3ef59e9d	0.47972575
166	0xbeb7bc85	-0.35886016
167	0x3ebcc08c	0.36865652
168	0x3ed3d096	0.41370076
169	0x3e98b2e4	0.29823983
170	0xbfd3fcac	-1.6561484
171	0xbf4eb8ce	-0.8075074
172	0xbe9a0bc9	-0.30087116
173	0x3ec56272	0.3855167
174	0xbf1d34df	-0.614088
175	0x3e08d0f9	0.13360967
176	0xbe779786	-0.24178895
177	0xbf0925d4	-0.53573346
178	0x3c4b8475	0.012421717
179	0xbf894221	-1.0723306
180	0xbf86d73b	-1.0534433
181	0x3f7e2c37	0.99286216
182	0x3ec11feb	0.37719664
183	0xbfb99c12	-1.4500754
184	0xbf15c765	-0.58507377
185	0xbf73617b	-0.9507062
186	0xbdc88472	-0.09790887
187	0xbf395b32	-0.7240478
188	0xbdb5625e	-0.08856653
189	0x3ef0c736	0.47026986
190	0x3f659d29	0.8969293
191	0xbf0136ad	-0.50474054
192	0x3f0d09e3	0.5509321
193	0x3f620077	0.8828196
194	0xbf359bde	-0.7094096
195	0x3f8d5d5b	1.1044115
196	0xbfa02cb4	-1.2513642
197	0x3e6b62f0	0.2298696
198	0x3ee29b4a	0.442591
199	0x3e1bd893	0.15219335
200	0x3d1a25ad	0.037633587
201	0xbfc61b59	-1.5477096
202	0xbd876e4b	-0.066128336
203	0xbf57caa0	-0.84293556
204	0x3f35f692	0.7107936
205	0xbf5fd3d3	-0.87432593
206	0x3ea87a29	0.329057
207	0x3e8292de	0.25502676
208	0xbfbb8173	-1.464888
209	0xbfb6d0fc	-1.4282527
210	0xbeb844fb	-0.35990128
211	0xbfc435d1	-1.5328923
212	0x3efe16f6	0.49626893
213	0xbe051fc4	-0.13000399
214	0xbefd3744	-0.49456227
215	0x3ee111c6	0.43958873
216	0xbee856e6	-0.45378798
217	0xbc84ee86	-0.016227018
218	0xc0269945	-2.6031048
219	0x3f8a54a2	1.0807078
220	0xbe8925fe	-0.26786798
221	0xbf9c38dd	-1.2204853
222	0xbf8c0e84	-1.094193
223	0x3f00a500	0.5025177
224	0xbfbf0000	-1.4921875
225	0xbfd5a340	-1.6690445
226	0x3f0789bd	0.52944547
227	0xbf0d4fac	-0.55199695
228	0x3f298adb	0.662275
229	0x3d8d282e	0.06892429
230	0x3f48dd0c	0.7846229
231	0x3ed34a99	0.4126785
232	0x3f96800f	1.175783
233	0x3f37b002	0.7175294
234	0xbf2836e7	-0.65708774
235	0xbe457ba1	-0.19285442
236	0x3e873353	0.26406345
237	0xbf13df27	-0.5776238
238	0xbdede586	-0.11616044
239	0x3d689989	0.056787048
240	0xbfd6324c	-1.6734099
241	0xbee5808c	-0.44824636
242	0x3c60f701	0.013730765
243	0x3e51dd63	0.20494609
244	0x3f7291ff	0.9475402
245	0x3e1f5477	0.15559565
246	0xbca7ff6b	-0.020507535
247	0xbea39051	-0.31946042
248	0xbf82cae7	-1.0218171
249	0xbf107827	-0.5643334
250	0x3d6ca40a	0.057773627
251	0x3f624bc7	0.8839688
252	0x3eb50e5c	0.35362518
253	0xbe9a7f53	-0.30175266
254	0x3ee7bf10	0.45262957
255	0xbf1f838d	-0.62310106

fc3.bias f4 [64]
0	0x3e04201b	0.12902872
1	0xbe55038a	-0.20802131
2	0xbda0828e	-0.07837401
3	0xbf5a52c7	-0.8528256
4	0x3ec96c65	0.3934051
5	0xbf03a37b	-0.51421326
6	0x3df68b4f	0.1203829
7	0xbdf92f38	-0.121672094
8	0xbdc84a44	-0.0977979
9	0x3ee981a3	0.45606717
10	0xbd749df9	-0.059720967
11	0x3efcb209	0.4935458
12	0x3e9baaf7	0.30403873
13	0x3c87ec8b	0.016592285
14	0x3ee0ef77	0.43932697
15	0x3cda3c3f	0.026640056
16	0x3e65b0c8	0.22430718
17	0xbe8e4392	-0.27785927
18	0xbb584624	-0.0033000791
19	0xbe950886	-0.29108065
20	0xbd608662	-0.054815657
21	0x3ecbb434	0.39785922
22	0xbfd55b0b	-1.6668409
23	0x3f0ea7f6	0.5572504
24	0x3e9fec46	0.3123495
25	0x3ec535e5	0.3851768
26	0x3f202f90	0.62572575
27	0xbca054bc	-0.019571654
28	0x3e965931	0.29364923
29	0x3eb29a3a	0.3488329
30	0x3c9eb760	0.01937455
31	0xbf834e4b	-1.0258268
32	0xbec7e410	-0.39041185
33	0xbf39d3a9	-0.7258859
34	0xbf583f9a	-0.8447205
35	0x3ed26c17	0.4109809
36	0xbe7d94c3	-0.2476378
37	0xbd3691d4	-0.044572666
38	0xbd54058e	-0.05176311
39	0xbe8d4509	-0.27591732
40	0x3a4bdfcd	0.00077771844
41	0xbf11096a	-0.5665499
42	0xbf10904b	-0.56470174
43	0xbfbb5888	-1.4636393
44	0x3ebff47b	0.3749121
45	0x3ded5dfc	0.11590192
46	0xbe9f36c9	-0.31096485
47	0xbf335e15	-0.7006543
48	0xbeb4de77	-0.35325977
49	0xbfb01dd8	-1.3759108
50	0x3dbe29c7	0.09285312
51	0xbf60b39d	-0.8777407
52	0xbf45c33c	-0.7725103
53	0xbf2c21e4	-0.67239213
54	0x3f2611c2	0.64870846
55	0xbe271644	-0.16317087
56	0xbf62e183	-0.88625354
57	0xbf24f059	-0.6442924
58	0xbe6130a2	-0.21991208
59	0xbf8b4d08	-1.0882883
60	0x3e72cf64	0.23711926
61	0xbef0eedc	-0.47057235
62	0xbe5a7056	-0.21331915
63	0x3ec51fd0	0.38500834

action_out.weight f4 [5, 64]
0	0x3e9040b3	0.28174362
1	0x3ddea3a5	0.108710565
2	0xbe37df03	-0.17956166
3	0xbcf5c969	-0.030003266
4	0xc04051d6	-3.0049949
5	0x3f3464c3	0.7046625
6	0x3ffb8e00	1.965271
7	0xbe2b17f3	-0.16708355
8	0x3f18e978	0.59731245
9	0xbf1d0fe3	-0.61352366
10	0xbeae6989	-0.34064892
11	0x3e8585f7	0.2607877
12	0xbf47815e	-0.77931774
13	0xbea910f2	-0.3302074
14	0xbf73d51a	-0.9524704
15	0xbe6e205e	-0.23254535
16	0x3de32251	0.1109053
17	0x4029f45a	2.655539
18	0x3f5033eb	0.8132922
19	0x3e9f0300	0.31056976
20	0xbde35d3f	-0.1110177
21	0xbf7523f6	-0.95758
22	0xbe33d62d	-0.1756217
23	0xbf000434	-0.50006413
24	0xbeae6e58	-0.3406856
25	0xbf29fa0c	-0.66397166
26	0xbff8ba01	-1.9431764
27	0x3d1e19ae	0.03859871
28	0xbff52621	-1.9152261
29	0x3fe1f160	1.7651787
30	0xbfa2a328	-1.2706041
31	0x3eb4943a	0.35269338
32	0x3d90eb26	0.07076101
33	0xbfdc689e	-1.7219427
34	0x3fa7c513	1.3107017
35	0xbf17acf7	-0.592483
36	0xbf9e9f64	-1.2392392
37	0xbf58de15	-0.8471387
38	0x3e463cbc	0.19359106
39	0xbf00dd06	-0.50337255
40	0x3f619eff	0.88133234
41	0x3f8cfefd	1.1015316
42	0x3f96e8fb	1.178985
43	0x3f6ea56f	0.9322118
44	0x3f248ebb	0.6428029
45	0xbd1b371f	-0.037894364
46	0x3f254570	0.6455908
47	0x3f291d1d	0.6606005
48	0x3e09cde4	0.13457447
49	0x3f2d8704	0.6778414
50	0x3edfeec4	0.4373685
51	0x3f8fb9ef	1.1228617
52	0xbe47aa6c	-0.19498605
53	0x3f268213	0.6504223
54	0x3f512f1b	0.817125
55	0x3eebe878	0.46075797
56	0xbf9aebf9	-1.2103263
57	0xbe886818	-0.26641917
58	0xbf3a5ea5	-0.72800666
59	0x3f1bc4bb	0.6084706
60	0xbf7edad2	-0.99552643
61	0xbd261156	-0.040543877
62	0xbfa74f8c	-1.3071151
63	0x3e26d49e	0.16292045
64	0xbfa08e6e	-1.2543466
65	0xbc49c1e5	-0.012314294
66	0x3fc329f1	1.5247175
67	0x3e82e94e	0.25568622
68	0xbf05191f	-0.51991457
69	0xbfa0e7d8	-1.2570753
70	0xbe8b4cb3	-0.27206954
71	0x3e6352c4	0.22199541
72	0xbf030b93	-0.51189536
73	0xbf4a2580	-0.7896347
74	0x3e5bf28f	0.21479248
75	0xbca765b8	-0.020434245
76	0xbf8a329e	-1.0796697
77	0x3f00f244	0.5036967
78	0x3f1fcc59	0.62421185
79	0x3e9a4efc	0.30138385
80	0xbf0e80db	-0.5566537
81	0x3ea69743	0.3253728
82	0xbfd79f2b	-1.6845449
83	0x3fcaed22	1.5853617
84	0x3d2d7aff	0.042353626
85	0x3e2e2eea	0.17010084
86	0x3e936389	0.28786877
87	0x3f286deb	0.6579272
88	0xbe399809	-0.18124403
89	0xbf415c1b	-0.75531167
90	0x3e2793f0	0.16365027
91	0xbcb87371	-0.022515984
92	0x3cb09bf1	0.021558734
93	0x3fb54109	1.4160472
94	0xbef6b9a7	-0.48188516
95	0xbf80ef0c	-1.0072951
96	0x3ee2c4da	0.4429081
97	0xbfb05742	-1.3776629
98	0x3e988c0b	0.29794344
99	0x3e75d0cf	0.24005435
100	0xbf0be7ca	-0.5465056
101	0x3fafe758	1.3742476
102	0x3e7b8518	0.2456249
103	0x3f4be5c8	0.79647493
104	0x3f8760bd	1.0576397
105	0xbfaacea7	-1.3344315
106	0x3ff85352	1.9400427
107	0xbf85a623	-1.0441326
108	0x3f0e2e8c	0.55539775
109	0xbf382de7	-0.7194504
110	0xbfcf1350	-1.6177769
111	0xc00ed53b	-2.2317646
112	0x3e7e8770	0.24856353
113	0x3ff0dd5a	1.8817551
114	0x3fb0c7d8	1.3810987
115	0x3e34ccae	0.17656204
116	0xbde73eef	-0.112913005
117	0xbeb42546	-0.35184687
118	0x3eed78ad	0.4638113
119	0x3f283f0b	0.65721196
120	0x3fbef7d2	1.4919379
121	0x3ffdf323	1.9839824
122	0x3f813c07	1.0096444
123	0x3fb5190e	1.4148271
124	0xbf310540	-0.69148636
125	0x3dcad7dd	0.09904454
126	0x3f21a578	0.6314311
127	0x3dec4890	0.11537278
128	0x3f068af6	0.5255579
129	0x3ca8a9af	0.020588724
130	0xbfc9c397	-1.5762814
131	0x3f8426fe	1.03244
132	0xbdaaaa13	-0.0833322
133	0x3f10ca23	0.56558436
134	0xbd9ef40f	-0.07761394
135	0xbf48213f	-0.7817573
136	0xbe2b209b	-0.16711657
137	0x3ede7b12	0.4345327
138	0xbdd13db3	-0.10216846
139	0x3fd36f24	1.6518292
140	0x3f8ad3b2	1.0845854
141	0xbfd3ebba	-1.6556313
142	0xbf189d7f	-0.5961532
143	0xbe980ae6	-0.29695815
144	0x3f81f71d	1.0153538
145	0xbea14c86	-0.31503695
146	0x3f3a81ab	0.7285411
147	0xbfa7e11e	-1.3115575
148	0xbd42bdbb	-0.047544222
149	0x3f9d87f6	1.2307117
150	0x3fb32e4b	1.3998502
151	0xbec2b2f8	-0.38027167
152	0x3e5d1c54	0.21592838
153	0x3f708384	0.93950677
154	0xbf0c6f30	-0.5485716
155	0xbf30c6ef	-0.6905355
156	0x3ddf633a	0.10907598
157	0xbf8bfdca	-1.0936825
158	0x3e2191ba	0.15778247
159	0xbe76f039	-0.24115075
160	0x3ef562a4	0.4792682
161	0x3ce62be2	0.028097097
162	0xc0006e13	-2.0067184
163	0x3eafa692	0.3430677
164	0xbf925d64	-1.143475
165	0xbfae374d	-1.3610626
166	0x3ea7b14d	0.32752457
167	0xbf6ae2af	-0.9175214
168	0xbf6d5ee1	-0.927229
169	0x3eb85b68	0.36007237
170	0xbfb9deb0	-1.4521084
171	0x3e8b0bad	0.27157345
172	0xbf1b2ff3	-0.6062004
173	0x3f41345a	0.7547051
174	0x400243f3	2.0353973
175	0x3fa6ae62	1.3021967
176	0xbf1e13f9	-0.61749226
177	0xbfeea8c7	-1.8645257
178	0xbfba849f	-1.4571723
179	0x3fb5e15d	1.42094
180	0xbeb52627	-0.3538067
181	0x3f979012	1.1840842
182	0x3ed1e1fd	0.40992728
183	0x3df13176	0.11777012
184	0xbf74bc03	-0.95599383
185	0xbf7c8335	-0.98637706
186	0xbf60ea23	-0.87857264
187	0xbf977950	-1.1833897
188	0x3f89189a	1.0710633
189	0xbe837b3f	-0.25679967
190	0xbf9f9e07	-1.2470101
191	0xbf3f9a06	-0.74844396
192	0x3eeefd32	0.46677548
193	0x3d179979	0.037011597
194	0x3f66a4fb	0.9009549
195	0x3fab9a72	1.3406508
196	0xbe762243	-0.24036507
197	0xbf44613e	-0.7671088
198	0xbf5071d8	-0.8142371
199	0x3f9e2fa6	1.2358291
200	0x3f02236f	0.5083532
201	0x3fba43c8	1.4551935
202	0x3f1c2b15	0.6100324
203	0x3efbc05e	0.49170202
204	0x3ec287b1	0.3799415
205	0x3f55cbb1	0.83513933
206	0x3fa3d122	1.2798197
207	0x3f858941	1.0432512
208	0x3f39c49e	0.7256564
209	0xbef0a404	-0.47000134
210	0x3f5fdd02	0.87446606
211	0x3f1cf3a7	0.61309284
212	0xbd8aff95	-0.0678703
213	0xc0027e80	-2.038971
214	0xbea3eec7	-0.3201811
215	0x3f2152c7	0.63016933
216	0xbfc9a534	-1.5753541
217	0xbd75c684	-0.060003772
218	0x3fa10ade	1.2581441
219	0xbf1b50b9	-0.6067005
220	0xbd10b7d9	-0.03533158
221	0xbf8f6a51	-1.120432
222	0xbf8f77df	-1.1208457
223	0x3dc5bbf1	0.096549876
224	0x40027021	2.0380938
225	0xbfa5bdcf	-1.294855
226	0x3f660309	0.8984838
227	0x3f185113	0.5949871
228	0x3ecd5bf8	0.4010923
229	0x3e84cd0b	0.25937685
230	0xbfe4de7a	-1.7880394
231	0x3f289b88	0.6586232
232	0x3e4dff0d	0.20116825
233	0xbf068fa4	-0.5256293
234	0x3f848800	1.0354004
235	0xbf15a500	-0.58454895
236	0xbf55eb59	-0.8356224
237	0x3f68c5eb	0.90927
238	0x3f3e56d8	0.74351263
239	0xbf1b411f	-0.6064624
240	0xbf8e8dae	-1.1136987
241	0xbf2fd1f2	-0.68679726
242	0x3f5fe4b4	0.8745835
243	0x400adfa4	2.1699
244	0xbfaa4bc2	-1.330437
245	0xbfe56337	-1.7920903
246	0xbfd3585b	-1.6511339
247	0xbe5ce6f5	-0.21572478
248	0xbec17a4d	-0.3778862
249	0x3f8de886	1.1086586
250	0x3f0aa7df	0.541624
251	0xbf069acb	-0.52579945
252	0xbf99535f	-1.1978568
253	0xbed17255	-0.4090754
254	0x3f179c1e	0.5922259
255	0x3fda286a	1.7043583

action_out.bias f4 [5]
0	0xbebe4ad4	-0.37166464
1	0x3da0fb9b	0.0786049
2	0x3e7772bf	0.24164866
3	0x3e9c4d26	0.3052761
4	0xbe828a8d	-0.2549633
