model/simple_tag/agent_0/critic_params.pkl (torch_old, 51179 bytes, 7 tensors)

fc1.weight f4 [64, 63]
000000 cc ae a6 bf 1a 5b 8e 3d f7 51 5d be 32 89 92 be
       -1.3022094 0.0695097 -0.21613298 -0.28620297
000010 9b 5d d6 bd 8c 2a ad 3e b0 f2 81 bd 83 98 03 3f
       -0.104670726 0.33821523 -0.06345117 0.5140459
000020 3f 0e 8e 3f e0 cc b4 bd 9a d5 22 3f d7 82 0d 40
       1.1098098 -0.08828139 0.6360718 2.2111108
000030 97 67 4a c0 9e e6 75 40 c1 22 13 c0 29 4c 14 40
       -3.1625726 3.8422008 -2.2989962 2.3171484
000040 6b d6 25 3f c3 e9 03 3f 1f 8e 84 be 64 a9 52 3e
       0.647803 0.5152857 -0.2588968 0.2057243
000050 fd c7 5e 3d 83 89 e0 bc da b7 4d be c0 ee 70 3e
       0.054389942 -0.02740932 -0.20089665 0.23528576
000060 14 44 69 bf 44 04 9e bd f0 6b 3b 3e ae 8c 35 40
       -0.91119504 -0.07715657 0.18302894 2.8367114
000070 44 1a 45 c0 ef 43 a5 40 ff ad 05 c0 1b 93 1c 40
       -3.0797281 5.1645427 -2.0887449 2.4464786
000080 52 6a c7 be 14 56 a7 3f ff c6 16 be 08 df 8c 3e
       -0.38948303 1.3073144 -0.14724348 0.2751391
000090 94 68 15 be a3 e1 d1 be 80 ad 49 be f6 50 98 be
       -0.14590675 -0.4099246 -0.19695091 -0.29749268
0000a0 60 fa 1c bf 57 98 14 c0 6e 63 76 bd 5e 6d 2a c0
       -0.6131954 -2.321798 -0.060153417 -2.6629252
0000b0 aa d5 71 c0 5b cf 4e 40 a5 5c 0f c0 13 a5 11 40
       -3.778666 3.231406 -2.2400296 2.2757003
0000c0 b1 5b 8c bc 03 fe 62 bf e1 3a 45 be 27 26 11 3e
       -0.017133566 -0.8866884 -0.19260742 0.1417471
0000d0 4b c9 80 be c2 b4 9e bd 1b 01 1a 3f e8 9e 87 3e
       -0.25153574 -0.077493206 0.60157937 0.26488423
0000e0 42 84 bd 3d a9 cc a4 be 45 16 f7 3c 8e 15 62 be
       0.09253742 -0.32187393 0.030161986 -0.22078535
0000f0 84 28 b3 3e 45 fc 7b 3e 75 7a 0b bf 3d 41 2f 3f
       0.34991848 0.24607952 -0.5448373 0.6845892
000100 c2 86 c9 3d 95 af 92 be 33 a9 40 3f c9 ef e7 3e
       0.09840156 -0.28649583 0.7525818 0.4530013
000110 c2 9d 66 40 aa d8 18 bf fc a2 48 c0 fa 56 28 3f
       3.6033788 -0.59705603 -3.1349478 0.65757716
000120 11 0b c6 3d 8e 22 da bf e1 f4 0c bf 4b 40 1a 3f
       0.096700795 -1.7041795 -0.55061156 0.60254353
000130 df 7b 0e 40 20 9b e0 3e 40 c9 7e be dd 20 7c 3e
       2.2263105 0.4386835 -0.24881458 0.24621911
000140 96 4b 7f be 08 1e 6a be 62 55 97 3f f9 c1 47 3f
       -0.24931177 -0.22863019 1.1822932 0.78030354
000150 f2 29 5e 40 e6 25 51 bf 06 38 55 c0 06 ca 30 bf
       3.4713101 -0.81698453 -3.3315444 -0.69058263
000160 13 ba ed bd ef 6d 0e c0 09 63 74 bf 42 7b 1a bf
       -0.116077565 -2.2254598 -0.95463616 -0.60344326
000170 22 a6 ce be 28 4f b4 3e 0f d4 86 bd 31 fd ba be
       -0.40361124 0.3521664 -0.06583416 -0.36521295
000180 46 dc 84 be e3 4d 43 3e f5 25 bf 3e 3f 2b 0a 3e
       -0.25949305 0.1907268 0.37333646 0.1349306
000190 18 4b 91 40 eb b2 fb be 59 c5 2f c0 32 e0 c5 3f
       4.5404167 -0.4915994 -2.7464201 1.5459044
0001a0 c2 c1 12 3f 37 eb 12 40 ed c2 8e 3f fc 68 61 3e
       0.573269 2.2956064 1.1153237 0.22012705
0001b0 5f 9b 9a 3f a0 8c b1 3e 34 28 22 be 71 28 e9 bd
       1.2078665 0.346776 -0.15835649 -0.11384667
0001c0 3e ce 5e 3e 8a 5b 89 bd 97 5a e1 bd 15 c1 94 bd
       0.21758363 -0.06706913 -0.11003607 -0.0726339
0001d0 9f f9 64 3e fe 43 70 3d c8 ef 68 bd 86 2a 9c be
       0.22360848 0.058658592 -0.0568693 -0.30501193
0001e0 5f 00 58 bb ce 16 b7 3b af e3 ac be 58 f4 56 3e
       -0.0032959206 0.0055874353 -0.3376746 0.20991647
0001f0 f5 2f cc 3d 01 13 62 3e 89 bc d6 be 5b 32 51 3e
       0.099700846 0.22077562 -0.41940716 0.20429365
000200 9d 1e d1 bc b0 c9 0f 3f 44 10 96 be d5 78 d8 be
       -0.025527293 0.56167126 -0.29309285 -0.42279688
000210 6f 00 6d 3e d0 1b 80 be a6 d0 be be 3e 88 38 3e
       0.23144697 -0.2502122 -0.3726856 0.18020722
000220 9e 80 b9 40 19 0b 41 c0 0d ed 25 c1 16 f0 ba 40
       5.7969503 -3.0163023 -10.370374 5.8418074
000230 0b ed 01 3e 28 a2 a7 3e 32 d7 1a be a8 54 f2 bd
       0.12688081 0.32740903 -0.15121153 -0.11832553
000240 ad 4b 1b be d8 e5 d4 b7 eb 42 b1 3e 45 87 9d bd
       -0.15165587 -2.5379399e-05 0.34621367 -0.07691816
000250 ec c5 33 be ec 8b c1 3d 71 09 fe 3e 62 99 a7 be
       -0.1755597 0.09450516 0.49616578 -0.3273421
000260 db 1c 82 40 62 74 59 c0 37 45 05 c1 99 2e b2 40
       4.0660224 -3.3977284 -8.329398 5.568188
000270 fd 4a cb 3c 17 74 3b 3e 55 cd 1c 3e d5 b0 d3 be
       0.02481603 0.18306004 0.15312703 -0.4134585
000280 98 8d 5a 3e d6 d1 10 bf c5 5d 98 bd 08 d4 0e 3f
       0.21343076 -0.56570184 -0.0743976 0.55792284
000290 ac e3 8e bd 79 95 36 3e 0a b9 bc c0 01 e7 47 40
       -0.06977019 0.17830457 -5.897588 3.1234744
0002a0 b3 12 88 c0 ec 20 66 40 e3 60 a0 c1 70 9a 33 41
       -4.2522826 3.5957594 -20.047308 11.225204
0002b0 1a 17 25 3e 4f a8 52 3e 8c 3a af 3d 13 d2 36 be
       0.16122094 0.20572017 0.08556089 -0.17853574
0002c0 dd ae 4e 3e bd f4 c3 bd 54 7b 73 3d f6 99 d0 3c
       0.20183893 -0.095681645 0.059443787 0.02546404
0002d0 0b ad 54 bd 7e 22 89 3e eb 93 87 3d b2 7a 18 bd
       -0.05192284 0.26784128 0.0662001 -0.037226386
0002e0 18 7d 4a bd 14 11 ba 3d 9c f5 9a bc 22 53 40 bd
       -0.049435705 0.09085289 -0.018915944 -0.04695428
0002f0 57 1c 00 3d 11 41 ec 3e f7 ad 3e 40 ac a4 a1 3d
       0.031277027 0.46143392 2.979368 0.07892737
000300 3c f6 ff 3e fb 80 d3 be b7 61 e8 be 7b 92 c1 3d
       0.4999255 -0.41309342 -0.4538705 0.09451767
000310 58 00 aa bd e0 1e 29 3f ab b8 36 3e aa 67 84 bf
       -0.08300847 0.66062737 0.17843883 -1.0344136
000320 1c 2e 61 bf af b6 be be 86 b8 f3 3f 89 3a e3 bd
       -0.8796098 -0.37248752 1.9040687 -0.11095149
000330 68 26 0a 3f e9 42 5a bf 2e ad ce 3f 54 1f cc bd
       0.53964853 -0.85258347 1.61466 -0.09966913
000340 af 8c c0 bd b3 69 6d 3e b9 0f ca 3b 40 e9 5f be
       -0.09401833 0.23184852 0.006166425 -0.21866322
000350 a9 9b 74 3e b7 58 f2 be db 10 27 be e3 ad ab 3d
       0.23887505 -0.4733331 -0.16315024 0.08382776
000360 5e 27 a0 3e 00 5e 8d bd 34 8a cd 40 7a 1a 2b bd
       0.31280035 -0.06902695 6.4231205 -0.041773297
000370 8e c7 2d 3f ff 89 d8 bf 3c 14 06 c1 2c 79 77 be
       0.6788262 -1.6917113 -8.37994 -0.24167317
000380 55 c6 ba bd ee 8b 25 be 2b 71 22 3f e7 48 60 3e
       -0.0911986 -0.1616666 0.6345393 0.2190281
000390 19 20 2d 3c 38 ff a2 3f b8 d2 46 3f 51 36 41 be
       0.010566735 1.2734137 0.7766528 -0.18868376
0003a0 92 e6 c0 be 60 88 25 bf 25 0c cc 40 e9 fd bb 3d
       -0.3767591 -0.64661217 6.3764825 0.09179289
0003b0 bc f3 24 3f ea 18 7c 3d fa b2 07 3e 48 c7 16 bf
       0.6443441 0.061547197 0.13251868 -0.5889783
0003c0 2a 3e ed 3f 2c 53 b8 bf 4b 08 4b be d6 4f 70 bd
       1.8534596 -1.4400382 -0.19827382 -0.058669887
0003d0 8d d1 9a bd 4c 1f 98 3c ea 11 2b 3d 95 38 9a 3d
       -0.075595 0.018569611 0.04176513 0.075303234
0003e0 16 77 a4 bf cf 02 57 3f f0 78 39 c0 df f1 59 40
       -1.2848842 0.8398866 -2.8980064 3.4053876
0003f0 c8 6d 41 be 95 3d a3 be 2d 33 b8 be 0d 8c a6 3d
       -0.18889534 -0.3188292 -0.35976544 0.08132181

fc1.bias f4 [64]
000000 b7 49 df c0 a9 c7 ff c0 72 91 82 3f 3f c5 0b c0
       -6.9777484 -7.9931226 1.0200636 -2.183914
000010 aa 14 80 3e 02 79 71 41 94 01 e1 bf d7 34 ce be
       0.25015765 15.092043 -1.7578607 -0.4027469
000020 68 74 89 3e 88 f9 5c 3f 4a 7a b6 bf c1 fe 3c 40
       0.26846623 0.86318254 -1.425607 2.953049
000030 c1 35 7a 3f 02 62 4a c0 75 26 c6 3e 1b de 50 41
       0.9773827 -3.162232 0.38701215 13.054225
000040 70 15 d2 3e 2f 24 75 bf 39 e2 1a bd b7 b7 22 c1
       0.4103198 -0.95758337 -0.0378134 -10.169852
000050 fa f4 1c 3e 52 5d 0d bf 31 c9 e0 3d b9 55 7f c0
       0.15327826 -0.5522052 0.10975874 -3.989607
000060 87 7c 25 c0 80 8d 49 3f 94 54 03 c1 bb eb 3a 41
       -2.5857255 0.78731537 -8.208149 11.682551
000070 ae e9 5a c1 9c 76 9d bf 31 47 b8 3e cc 29 bc bf
       -13.682051 -1.2301822 0.35991815 -1.4700255
000080 68 41 4d c0 ea 11 8a 41 47 62 b8 bd 09 32 11 40
       -3.207117 17.258747 -0.0900312 2.268679
000090 d1 ff fd c0 65 9d 65 3e e3 ea 15 bf ef 0d f5 3d
       -7.9374776 0.22423322 -0.58561534 0.11965548
0000a0 90 c8 f5 be 6d 02 ed be 92 38 02 c1 90 74 7d 41
       -0.4800458 -0.46290913 -8.138811 15.840958
0000b0 fe c1 28 c1 c1 ce c6 3e 9a 76 16 c1 6b 13 35 3f
       -10.547361 0.38829616 -9.403955 0.70732754
0000c0 3e d2 3a c0 35 58 e6 c0 43 c0 db c0 97 53 b8 c0
       -2.9190822 -7.1982675 -6.8672194 -5.760204
0000d0 e5 d5 14 be 70 e1 d6 c0 0c 5a 28 c1 05 32 8a be
       -0.1453472 -6.715019 -10.521984 -0.26991287
0000e0 b5 f6 9a bf 48 ce e5 c0 54 2d 5c 40 dd cb 17 be
       -1.2106539 -7.181431 3.4402666 -0.14823861
0000f0 55 d0 cb c0 2e e6 5b c1 88 f5 06 c0 b9 c9 8c bf
       -6.369181 -13.743696 -2.108736 -1.0999061

fc2.weight f4 [64, 64]
000000 aa b6 d5 bf b0 81 e0 3d b2 3f 51 c0 b2 7a 4b bf
       -1.669637 0.10962236 -3.2695127 -0.79484093
000010 43 10 08 3f d8 99 17 3f ff 7d cf bf d2 fd 50 bf
       0.53149813 0.5921912 -1.6210326 -0.816373
000020 28 39 b3 3f 70 8c 99 3f d4 e6 cb 3f 61 20 dc 3e
       1.4001818 1.1995983 1.5929818 0.42993453
000030 eb 72 03 c0 23 70 fd be 86 e8 fc bd 47 00 9c 3f
       -2.053889 -0.49499616 -0.12349038 1.2187585
000040 94 45 73 3e 83 d7 9f 3e 03 27 8f bf a7 48 0e bf
       0.2375701 0.3121911 -1.118378 -0.5557961
000050 6f 45 6f 3f 40 f2 50 40 5d e4 65 3f 53 1b 90 bf
       0.9346532 3.2647858 0.8980158 -1.1258339
000060 78 32 0c be b9 ef b3 bf 95 57 ee bf 94 4c fb 3e
       -0.13691127 -1.4057533 -1.8620478 0.49081862
000070 71 af 4a 40 79 0e 67 3f 59 e9 fd 3e 87 ec 13 c0
       3.166958 0.9025646 0.49592093 -2.3113115
000080 2c 73 b4 3e 95 84 93 3e d7 ee 46 3f fd bf a9 be
       0.3524412 0.2881209 0.7770819 -0.33154288
000090 3d 2c ed c0 16 b9 13 c0 4f 09 dd 3f 36 9c a3 3e
       -7.41165 -2.3081717 1.7268466 0.31955117
0000a0 49 62 1d 40 d1 ad 7d 3f b6 56 25 3f b2 98 8b be
       2.4591238 0.9909335 0.64585435 -0.27264935
0000b0 b1 7e 3c c0 0b 0e 0e bf 8a 89 0e 40 58 0e 3f bf
       -2.9452326 -0.5549018 2.2271447 -0.7463126
0000c0 82 98 91 3f dc 34 ea bd 42 9a ae bf e0 06 75 3f
       1.1374667 -0.114358634 -1.3640826 0.95713615
0000d0 9e f8 33 c0 37 93 ad 3f de 70 25 c0 a0 9a 95 3f
       -2.8120494 1.3560551 -2.5850139 1.1687813
0000e0 a5 65 ca bf 93 db 59 3f b0 4d 47 c0 37 a0 95 3d
       -1.581227 0.8510067 -3.1141167 0.07305949
0000f0 2c f0 83 bc c2 0f 9d 3d e7 cf 00 c0 88 3b 5a bf
       -0.016105734 0.07669021 -2.0126894 -0.8524709
000100 18 8d 6f be 50 a3 5d 3f 15 7a 16 3f c8 4e 21 3f
       -0.23393667 0.8657732 0.5878003 0.63010836
000110 cb 5c 7e be a9 ec 09 c0 cb d8 9d be 4a 05 0d 3f
       -0.24840085 -2.1550696 -0.30829462 0.55086195
000120 7e 47 13 3e bb b6 7e bf 28 d2 26 3d 4e 53 1c c0
       0.14382741 -0.99497575 0.040727764 -2.4425845
000130 60 30 91 bd 5c b3 8d 3f 5f 7c 2f bf 59 3f 2b c0
       -0.07089305 1.1070361 -0.6854915 -2.6757414
000140 17 7f 12 3f 6b 6f 9f be 5f ab d4 3e e3 ef 64 bf
       0.57225174 -0.31139693 0.41536996 -0.8942854
000150 b7 2c 9b be 4c a4 66 bf 39 09 c2 3c cc 12 1d c0
       -0.30307552 -0.9009445 0.023686038 -2.4542723
000160 e6 7f 89 bf b7 32 4a 3f 34 72 4b bf 96 db ca bf
       -1.0742157 0.78983635 -0.79471135 -1.5848262
000170 4c 96 4b bf c1 9e 17 3f 05 c5 da 3e 6b 85 ce be
       -0.7952621 0.59226614 0.4272844 -0.40336165
000180 28 65 98 bd 4c 2d a1 c0 3f 7a 09 3d a0 22 fd bf
       -0.07441169 -5.0367794 0.03356385 -1.9776192
000190 73 a1 91 bf 88 41 28 3f 80 bc 71 3f aa df d9 3e
       -1.1377395 0.6572499 0.94428253 0.42553455
0001a0 12 27 9e 3d 77 a7 d8 be 4a f3 30 bf 36 c8 8d c0
       0.07722296 -0.42315266 -0.6912123 -4.43069
0001b0 07 95 c8 3e 55 e2 ce bf 40 54 31 bf a4 1e 98 bf
       0.391762 -1.6162821 -0.6926918 -1.1884351
0001c0 5c bc 40 bf d1 a7 68 bf 85 93 e0 3e b4 18 e2 be
       -0.75287414 -0.9088107 0.43862548 -0.44159472
0001d0 ad a1 29 3f 6b f2 bf be dc 01 a4 bc a5 0d 9f be
       0.6626232 -0.37489638 -0.020020418 -0.31065097
0001e0 09 7c 23 3f 1c 32 ef 3e af c5 1d bf b3 0d 63 be
       0.6386114 0.46717918 -0.61629766 -0.22173195
0001f0 b7 20 b8 bf 43 97 89 3f d8 05 77 bf c8 73 ad be
       -1.4384984 1.0749286 -0.9649329 -0.33877397
000200 9c b9 17 bf 34 ba b9 be c8 22 69 be 7d 40 0b bf
       -0.5926759 -0.36274874 -0.22767174 -0.54395276
000210 f1 6e 53 3f bb 06 4e 40 b5 58 4f bd 96 92 57 be
       0.8259116 3.2191608 -0.050621707 -0.21052012
000220 2b b2 ae 3d 71 63 bb be ea b4 80 bb 72 b9 4a 3e
       0.085300766 -0.36599305 -0.0039278166 0.19797304
000230 b8 7f a8 be fe 8b 83 bf 0e 41 5d 3e 0e ac 9b 3f
       -0.32909942 -1.0277097 0.21606848 1.2161882
000240 3c 0a ca bd 70 c4 88 bd b1 01 46 bf 4e a9 fb be
       -0.09865233 -0.066780925 -0.7734633 -0.49152607
000250 26 af 41 3e 77 f9 42 be 29 d4 3d 3f 45 70 90 bf
       0.1891447 -0.19040476 0.74151856 -1.1284262
000260 6a 40 77 3e 67 c3 e6 3e cb b2 69 3c f0 bb bf 3e
       0.24145666 0.45070955 0.014263819 0.37448072
000270 01 2c 4a 40 4f d3 30 3f 37 a2 87 be 3b a2 35 bf
       3.1589358 0.6907243 -0.26490948 -0.7095067
000280 51 2c 84 bf 3a fd f3 3f bf a4 b2 be 17 34 6d 3e
       -1.0326024 1.9061654 -0.34891316 0.23164402
000290 e9 13 53 3f 82 a2 36 3d a5 f2 7b bf 40 72 6f be
       0.82452255 0.044588573 -0.9841712 -0.23383427
0002a0 5c 3d 26 3f ec 74 86 3f 74 d6 96 3e 5e 27 f0 3f
       0.64937377 1.0504432 0.2946049 1.8762014
0002b0 0d ba bd 3f 92 d3 6d be e4 2c 5a be 3f f2 8c bf
       1.4822403 -0.23225239 -0.21306187 -1.1011428
0002c0 9e 46 87 be bc ff 10 bd 17 aa 01 c0 38 fd 32 be
       -0.26421064 -0.035400137 -2.0260065 -0.17479408
0002d0 06 06 df be 16 db 78 bf 33 de 9e 3f d8 5c 2d 3f
       -0.43559283 -0.972093 1.241156 0.67719793
0002e0 40 8b da be 18 d7 1b 3e df 67 84 be 24 d4 13 3e
       -0.42684364 0.1521877 -0.25860497 0.14436394
0002f0 79 c5 41 3e 26 43 e9 3f 2d 7d 0f bf d6 5c e9 3e
       0.18922986 1.8223617 -0.5605038 0.4557864
000300 a2 3a b2 c0 5c b9 09 bf 22 e6 8e 3f 76 77 b9 c0
       -5.5696573 -0.5379846 1.1163981 -5.7958326
000310 72 06 30 3f e5 0f 9f bf 26 02 32 c0 92 cb 37 c0
       0.68759835 -1.2426726 -2.7813811 -2.8718
000320 2f c3 13 c0 22 88 da bf cf fa aa bf 23 e3 da bf
       -2.308788 -1.7072794 -1.3357791 -1.7100567
000330 d9 8f b7 bf ea 34 82 3f e8 09 be bf 32 75 dc c0
       -1.4340774 1.0172398 -1.4846773 -6.889306
000340 fd e4 c2 3e 27 1f 6b c0 9c 63 bb 3e 0a 51 26 3f
       0.3806533 -3.6737764 0.36599433 0.64967406
000350 0b 0f e5 3e da 5b 6b bf 4d f7 cb 3f a9 01 14 bf
       0.4473804 -0.9193703 1.5934845 -0.57815033
000360 9a 27 c5 c0 09 7f 77 c0 7b 19 ca 3f 4d 3a bc bf
       -6.161084 -3.8671286 1.5789026 -1.4705292
000370 2a 27 c9 3f 90 d8 28 bf 25 f4 90 be 9a 5f 9a bf
       1.5715077 -0.6595545 -0.28311267 -1.2060425
000380 15 ca 58 c0 cf 09 84 bf 89 7a 10 bf 17 60 c2 bf
       -3.387334 -1.0315493 -0.56436974 -1.5185574
000390 07 6d 20 c0 46 e0 bd bf 52 b8 2f 3f c5 95 88 3f
       -2.5066545 -1.4834068 0.68640625 1.0670706
0003a0 d4 d1 98 c0 7d 55 c5 be 69 b4 a9 3e b9 92 e9 bf
       -4.775614 -0.38541785 0.33145455 -1.8247901
0003b0 22 bb ed bf 37 52 94 3e 85 7c 99 be fd 6e d6 be
       -1.8572733 0.28968975 -0.29977813 -0.41881552
0003c0 09 b6 60 bf 26 71 4e bf 2f fe 84 3f 35 ed d3 c0
       -0.87777764 -0.806414 1.0390071 -6.622706
0003d0 21 11 1d 40 82 26 9c 3f dc 6f af bf f0 e5 06 bf
       2.4541705 1.2199252 -1.3706012 -0.52694607
0003e0 a4 96 21 bf 8e af 07 c0 1c 98 8f 3e ad 9e 65 3f
       -0.63120484 -2.12009 0.28045738 0.89695245
0003f0 5c 66 71 c0 0d c3 ec bf 43 00 38 c0 5e aa 82 c0
       -3.7718725 -1.8497025 -2.875016 -4.083297

fc2.bias f4 [64]
000000 3a 5d 79 bf 94 8c a4 c0 cf 1b 3b 41 8c c1 95 40
       -0.9740788 -5.1421604 11.694289 4.6798763
000010 a6 27 32 be 05 8e aa c0 15 3f e7 3f 56 48 94 c0
       -0.17397937 -5.3298364 1.8066126 -4.63383
000020 cd 43 71 c0 99 65 7a c0 9b f1 e9 40 c8 6c 7d c0
       -3.7697632 -3.912451 7.310743 -3.9597645
000030 2f fe 85 41 a2 5e 75 c0 0a 56 97 bf 1e 4a 09 3f
       16.749113 -3.833901 -1.1823132 0.5362872
000040 1a 44 05 c0 c5 2e ed 3b d5 29 98 bf 98 f3 01 c0
       -2.0822816 0.0072382414 -1.1887766 -2.0304928
000050 e8 2d 99 c0 a6 b8 b7 be c5 73 1d 41 d8 af f6 bf
       -4.786854 -0.35883063 9.840764 -1.9272413
000060 ec 35 c4 3f 6f 30 88 c0 ac 47 a9 40 79 b3 8c c0
       1.5328956 -4.2559123 5.289999 -4.3969083
000070 0f 97 22 c0 93 f4 fd 3e a5 a0 83 c0 6d 54 c4 40
       -2.54047 0.49600658 -4.11336 6.135306
000080 c7 7a 2e c1 30 fd b1 40 53 61 56 3e 1f 57 66 40
       -10.904975 5.5621567 0.20935564 3.5990674
000090 f6 16 c7 40 06 c7 4b 40 49 91 dd bf af bb e6 3f
       6.221553 3.1840224 -1.7309963 1.8026026
0000a0 14 12 b9 c0 02 00 eb 40 bd 00 8e 3e cb 97 20 c0
       -5.783457 7.343751 0.27734938 -2.5092647
0000b0 48 a0 b9 40 b0 11 8b c0 21 89 af c0 d5 53 b4 40
       5.8008156 -4.345909 -5.4854894 5.6352334
0000c0 86 db 4c bf 45 2b 34 40 24 57 61 40 e0 9e 72 bd
       -0.80022466 2.815141 3.5209436 -0.059233546
0000d0 08 9d 3b c0 0d fe 49 c0 62 42 ec 40 5b 4e a0 3f
       -2.9314594 -3.156131 7.3831034 1.2523912
0000e0 0d 4d b8 bf c7 f1 c3 40 ee 70 d3 3e 6b 99 57 3e
       -1.4398514 6.123264 0.41297096 0.21054618
0000f0 23 8f 80 c0 c5 c6 53 c0 a2 f3 00 be 4c 8f d1 bf
       -4.0174727 -3.309007 -0.12592939 -1.6371856

fc3.weight f4 [64, 64]
000000 27 94 25 3f 4f 0c cd bd 09 0b 67 bf 7d 3b 48 c0
       0.6467919 -0.10012113 -0.90251213 -3.1286309
000010 10 ae 53 bd 49 2f 3a c0 0f 53 64 bf 34 d2 04 bf
       -0.05167967 -2.909136 -0.8918924 -0.51883245
000020 61 15 fd 3e ce d4 a2 bf 3d 28 7f bf f2 5a 3a 3f
       0.49430373 -1.2721193 -0.99670774 0.7279502
000030 16 ee 94 bf 14 5e 81 3f 94 d0 92 40 39 34 f1 be
       -1.1635158 1.0106835 4.587961 -0.47110155
000040 4d de 5b 40 6b ab 46 bf 86 36 1d 40 50 2f 6e 40
       3.4354432 -0.77605313 2.4564528 3.7216377
000050 08 8f 05 3f 8e 79 4c be 68 7a c6 be ea 48 91 3f
       0.52171373 -0.19968244 -0.38765264 1.1350377
000060 74 81 4f c0 92 99 17 bf e1 1e 8c 3e 82 af 04 be
       -3.2422762 -0.59218705 0.2736731 -0.12957576
000070 2c 83 2c 3f 1f de a0 3f 9e e0 a3 3f 2f d0 08 40
       0.6738765 1.2567786 1.2802923 2.1377065
000080 86 cd 13 be 6d 8c b4 3f 6c e4 b4 3d fe 6e bb bf
       -0.1443387 1.4105355 0.088326305 -1.4643247
000090 66 39 9d 3f 86 96 5d bf f5 e3 23 be a3 1b 75 3f
       1.2283142 -0.86557806 -0.16004927 0.95745295
0000a0 d8 86 c2 bf 5a 7c c4 be 0f 36 9b bf 07 51 9e bf
       -1.5197401 -0.38376123 -1.2125872 -1.2368478
0000b0 8b f7 41 3f ee d1 15 c0 54 84 fb bd 6f 9d 2b c0
       0.75768346 -2.340938 -0.12281099 -2.681484
0000c0 97 91 13 3e ab d4 85 be 68 cc 95 bf 7c a7 4d c0
       0.14411007 -0.26138815 -1.1703005 -3.2133474
0000d0 d9 4e ed 3f c6 6b 6b 3f e4 ee 5c 40 d0 98 c0 3e
       1.8539687 0.91961324 3.4520807 0.37616587
0000e0 6b e5 e3 bf 11 0b 4b c0 a4 1c 16 3f c8 5a a5 40
       -1.7804388 -3.1725504 0.5863745 5.1673317
0000f0 37 7e 33 be 97 69 fc 3d b0 f5 88 3e 1e 1b ab 3f
       -0.17528616 0.12324827 0.26749945 1.336765
000100 ab 99 d5 be 84 3a af 3f 6d 2f 96 bf 6d d1 d8 bf
       -0.41718802 1.3689733 -1.1733223 -1.6938912
000110 11 db dc bd e8 f4 9b 3d b7 0e 17 3e b3 fc 0e c0
       -0.10783971 0.076150715 0.14751707 -2.2341735
000120 ae e7 8d bf 34 e6 40 3f f5 64 24 c0 3b 34 ae be
       -1.1086328 0.7535126 -2.568662 -0.34024224
000130 8e 8f 46 c0 3a 9c 0a c0 c7 47 6c bf eb 1e 7c bf
       -3.102512 -2.1657853 -0.92297024 -0.9848468
000140 8a 90 2a 3f a9 52 3d 3d d6 08 50 3f d9 d6 a0 3f
       0.666268 0.04622141 0.8126348 1.2565566
000150 93 c3 0b c0 e1 5f 39 be e4 64 85 3f ca e8 f9 bf
       -2.183812 -0.18102981 1.0421414 -1.9524167
000160 ed 15 d2 bf a9 70 20 c0 c1 30 e5 bf f9 db 8f 3f
       -1.6412941 -2.5068762 -1.7905504 1.1239005
000170 cd a5 19 3f 42 8e 82 be 7d 49 c8 be 15 75 d6 bf
       0.60018617 -0.2549916 -0.39118567 -1.6754481
000180 10 7b 31 c0 8a e5 ef bf 1a 06 98 bf 81 b6 2e bf
       -2.7731361 -1.8741925 -1.1876862 -0.6824723
000190 ab b4 c4 3f 7f 55 51 bf f4 ef 43 be ae cb 99 bf
       1.5367635 -0.8177108 -0.19134504 -1.2015283
0001a0 d2 e4 49 3f e1 71 d6 bf 3d fc 06 c0 44 2e f1 be
       0.7886478 -1.6753503 -2.1091454 -0.4710561
0001b0 ae fb ee bf c5 13 fa bf 42 29 0f bf a9 42 1b be
       -1.8670557 -1.9537283 -0.5592233 -0.15162148
0001c0 00 7b 1e c0 c6 cf 04 bd c7 75 17 c0 f5 e6 5f bf
       -2.4762573 -0.03242471 -2.3665636 -0.8746179
0001d0 1c 3d d1 3e 25 64 4b bf 27 96 8f c0 1b ad 6d bf
       0.40866935 -0.79449683 -4.487079 -0.92842263
0001e0 58 0f 50 3f 24 68 0e c0 0d a5 a3 3e 1a 25 56 bf
       0.8127341 -2.2251062 0.3196186 -0.8365036
0001f0 3a e1 aa be 1e bd 9b bf a7 c6 42 3f 3b 93 0b bf
       -0.3337496 -1.2167089 0.7608437 -0.5452153
000200 76 ed 13 c0 be ec 7b 3f a0 c7 a6 bf d7 d3 91 bf
       -2.3113685 0.98408115 -1.3029671 -1.1392773
000210 51 3f 15 3e 65 fd a5 3f 2c 33 35 c0 03 f0 44 3f
       0.14574935 1.2967955 -2.8312483 0.7692873
000220 34 64 56 bf fe 62 23 3f 81 49 f5 bf 41 b8 74 bf
       -0.8374665 0.63822925 -1.9163057 -0.9559365
000230 be e6 65 bf 1f 9e ed 3e 01 f0 43 3e c7 dd a2 3c
       -0.8980521 0.464097 0.19134523 0.019881142
000240 d0 da 81 3f f8 d2 f4 be b9 e5 8f be b3 56 c4 3d
       1.0144901 -0.47817206 -0.28104952 0.09586849
000250 03 bc b3 be 9b 5d 49 3d 41 db e5 bf a8 cb ad 3c
       -0.3510438 0.049161535 -1.7957536 0.021215275
000260 27 c5 ce bf 40 82 28 bf 8d 8e 70 bf 31 e2 75 3e
       -1.6153916 -0.65823746 -0.93967515 0.24012066
000270 18 4c 37 bd 2e 45 98 bf 6b 37 96 3e 41 e8 8a bf
       -0.044750303 -1.1896112 0.29339156 -1.0852128
000280 33 07 58 bf 8d 02 6e 3f 57 47 9e bf c5 6a b8 3f
       -0.84385985 0.9297264 -1.2365521 1.4407583
000290 54 2a 74 3f 0d a0 ab 3c 97 fa 0d bf 4f 6f d9 bf
       0.9537709 0.020950342 -0.55460495 -1.6987094
0002a0 e6 20 8f 3e a9 2b c8 bf a9 6d d8 be 59 64 b3 bf
       0.27954787 -1.5638324 -0.42271164 -1.4014999
0002b0 ba 00 05 bd a6 0a 9b be 58 95 36 bd c8 14 34 3f
       -0.032471396 -0.30281562 -0.04457602 0.7034421
0002c0 67 f6 96 bf 28 f9 54 3f 5b 7f 40 bf de ff bc 3e
       -1.1793946 0.8319268 -0.7519433 0.3691396
0002d0 73 3a 3e bf 79 5d 50 3f a9 6a ba bf 85 91 81 be
       -0.74307936 0.8139263 -1.45638 -0.25306335
0002e0 25 f5 c7 be fd d1 3f bf 55 ab 30 be 0a 8d 0f c0
       -0.39054218 -0.7492979 -0.17252858 -2.2429833
0002f0 2d e0 23 c0 28 0c a7 3d 48 d8 c2 3d 43 ea df bd
       -2.5605576 0.081566155 0.095139086 -0.10933354
000300 58 97 9d be 14 97 44 be 1c 48 84 3f 34 c0 40 40
       -0.3077953 -0.19198257 1.0334506 3.0117311
000310 4f 5e 89 3e 17 4a ce 40 7a 79 73 3e 11 ff 2b c0
       0.26829764 6.446544 0.23776808 -2.687443
000320 5e 02 13 bf 95 e5 16 bf c8 54 48 3e 11 23 e9 be
       -0.5742549 -0.58944064 0.19563591 -0.45534566
000330 ec b2 45 3f 8f 00 21 bf e1 b7 c2 3e 0d 08 22 3f
       0.7722614 -0.6289148 0.38030913 0.63293535
000340 e9 e8 9c bf 03 0e 83 be 31 b8 fa be ec b3 1a 3f
       -1.2258579 -0.25596628 -0.48968652 0.6043079
000350 86 61 31 bd 06 b7 b3 3e 76 c8 de 3e c0 94 67 be
       -0.043305896 0.35100573 0.43512315 -0.22615337
000360 d5 48 ab bc 25 bd d4 40 59 52 c3 3f d1 3d a5 be
       -0.020908752 6.648089 1.5259506 -0.32273725
000370 a2 a3 78 3f 3f fd c9 3f 2e df 28 3e 37 d9 8e 3e
       0.97124684 1.578041 0.16491386 0.27900097
000380 75 e1 fa 3c 0a 99 c9 40 6f 9c 1b 3f fc 1c ff be
       0.030625084 6.2999315 0.60785574 -0.498268
000390 67 77 2b 3d a6 8b fe be d6 da 0a 3d 04 1c b7 3e
       0.041861918 -0.49715918 0.033900104 0.35763562
0003a0 2a 3b 7a 3e 78 ae 9d 3e b4 b1 6f 3e 60 1f 7a 40
       0.24436632 0.30797172 0.23407632 3.908165
0003b0 ea 10 4c 3f 81 87 5a bc af af 94 3d 1d 8d 94 3e
       0.7971331 -0.013337971 0.072600715 0.2901391
0003c0 0a ea 5b 40 00 db f4 be de b1 bf be 7d 1d c4 3d
       3.4361596 -0.47823334 -0.3744039 0.09575937
0003d0 fe 4c 49 bf 0c 66 a3 3f 6a 98 60 40 7e d5 4b 3e
       -0.78633106 1.2765517 3.5093026 0.1990566
0003e0 fc 2b 7b 40 fd 3d 05 40 04 7b 67 3f 9e ca 8a 3f
       3.9245596 2.0819085 0.9042208 1.0843084
0003f0 78 d3 c3 be 1b 2b 14 3e 55 ea e1 3e 3c 79 1a be
       -0.38247275 0.14469568 0.44124094 -0.1508531

fc3.bias f4 [64]
000000 24 db f1 bf 71 77 e5 be 19 15 4d c0 c4 69 99 41
       -1.8895001 -0.4481769 -3.2044127 19.176643
000010 68 18 fc 3f dd d6 4f 40 a2 38 72 40 ec 66 2b bf
       1.9694948 3.2474892 3.7847066 -0.6695392
000020 5c 58 5a 3e f7 66 ac 40 e1 16 19 c0 28 3a f1 3f
       0.21322769 5.387569 -2.3920214 1.8845873
000030 82 e6 25 41 a9 ac 2d 3f 0a 4d 84 c0 bc b1 24 c0
       10.368776 0.67841583 -4.134404 -2.573348
000040 90 67 eb 3f 0d 70 eb 3f ae 6b 39 41 0e 89 90 bf
       1.839098 1.839357 11.588789 -1.1291826
000050 49 12 f3 c0 6e 74 82 c1 63 be 2d 41 5f 93 a1 bf
       -7.595982 -16.30685 10.858981 -1.2623099
000060 7b 55 38 40 a6 88 a5 3d d8 b4 22 c0 af 09 b8 c0
       2.8802173 0.08082704 -2.5422878 -5.751182
000070 05 89 67 c1 00 a7 9f be 27 18 ed bf a8 b9 0d 40
       -14.470952 -0.31182098 -1.8522996 2.2144566
000080 6e 7c e5 bf 92 6f ef 3f 3f 63 2e c0 38 e6 32 c0
       -1.7928598 1.8705924 -2.7248075 -2.7953014
000090 95 a7 14 bf 94 fd 84 c0 18 06 eb c0 1e b7 fc 3f
       -0.5806821 -4.1559544 -7.344494 1.9743383
0000a0 bc 7e 29 40 80 d4 f1 3f 95 d0 6e bf c2 e0 b3 3e
       2.6483603 1.8892975 -0.9328702 0.35132414
0000b0 f0 3d 3a 3f ba ce cd bf 8c 29 96 40 5a 0f f7 be
       0.7275076 -1.6078713 4.6925716 -0.482539
0000c0 75 7f 08 bf be 31 df 3f fd d6 c2 bf c1 4f 5a c0
       -0.53319484 1.7437055 -1.5221859 -3.4111178
0000d0 ae f2 7d 40 61 85 da 3e 90 5a a2 bf 2f 7c 2d c0
       3.967937 0.42679885 -1.2683887 -2.7107046
0000e0 10 ed 58 bf bc 7a 80 41 92 86 4f bf 42 9d 4f bf
       -0.8473673 16.059929 -0.81064713 -0.8109933
0000f0 bb b7 5d c0 6d 6d a4 c0 de f9 c5 40 7c 42 6b 3e
       -3.464339 -5.1383576 6.1867514 0.2297458

q_out.weight f4 [1, 64]
000000 7e ab 36 be fc a2 0d 3f fb a0 d9 bc 4b f1 dd 3e
       -0.17838857 0.5532682 -0.02656602 0.43348154
000010 25 bb 05 3d 59 48 ed 3d b0 30 6d bd 17 5f d4 3c
       0.032649178 0.11586065 -0.05790776 0.025924249
000020 60 32 e1 be 2c 47 82 3d 2b fe f4 bd 3f ef c0 bb
       -0.43983746 0.06361231 -0.11962541 -0.0058878954
000030 a6 c1 8b 3d 33 37 35 3f 12 3c d5 3e 2c f2 01 3e
       0.06824045 0.7078735 0.41647393 0.12690037
000040 bc 04 b7 bc 3b 63 7f bf 04 88 b9 3f fc 78 2f 3f
       -0.022341125 -0.9976079 1.4494634 0.6854398
000050 09 83 a8 be fe 53 9f bd 9b 81 0b 3e 83 fe d3 bd
       -0.32912472 -0.07779692 0.1362366 -0.10351279
000060 8c 69 25 3d eb 11 4c 3e 3c 2e 05 3e f8 f7 cf bd
       0.04038386 0.1992871 0.13005918 -0.10154718
000070 63 fd 07 be 58 86 17 3d 72 23 21 be a9 df 80 3c
       -0.13280253 0.036993355 -0.15736178 0.01573165
000080 d2 a4 a5 3d 68 4b c2 be 9a 5f 70 bd fb 9c 5f be
       0.080880776 -0.37948155 -0.058684923 -0.21837227
000090 da f9 16 be eb ae 2b 3f 0a 1a 10 be 32 8e 9e 3b
       -0.14743748 0.6706378 -0.14072433 0.0048387283
0000a0 46 aa a8 3e 1f 69 70 be 99 c8 79 3c 78 a9 76 3c
       0.32942408 -0.234776 0.01524558 0.015055053
0000b0 19 1b 17 bc d2 3a e0 3b a2 02 39 bc 21 ec 4c 3e
       -0.009222769 0.0068429494 -0.011292132 0.20011951
0000c0 49 41 01 3d a7 d2 e4 3d 36 9f 90 3e ab 9f f1 3c
       0.0315564 0.11172991 0.28246468 0.029495081
0000d0 d8 43 f0 3e 1b 56 bc 3e 73 da cf 3e 3a de 8c bd
       0.4692676 0.36784443 0.4059635 -0.06878324
0000e0 04 25 4e bc 7f 95 eb 3d cb a9 a2 3d a9 a8 fb 3d
       -0.012582067 0.115031235 0.07942542 0.12288029
0000f0 79 8e 72 bd 03 6e a6 bd 1c c1 0e 3e 09 67 38 3f
       -0.059217904 -0.08126452 0.13940853 0.7203222
