model/simple_tag/agent_1/actor_params.pkl (torch_old, 40203 bytes, 8 tensors)

fc1.weight f4 [64, 16]
-0.1932953 -0.20873335 -0.0718435 -0.09121878 0.66992426 -0.70899147 -0.7933351 0.595149
0.61244285 0.6265484 0.35350972 0.34472322 0.1729527 -1.8892635 -1.8239326 -0.98340535
-0.36937425 -0.5526462 -0.32651162 -0.3275375 0.054996148 -0.26208466 -0.41360202 -0.01342047
2.2448845 -0.42147225 2.3147674 0.1555519 0.64023596 -0.9394283 -0.7370675 -0.36710432
0.5169841 -0.17566621 -0.09101838 -0.30584025 -0.14195734 -0.28418177 0.05509392 0.01168089
-0.11710296 1.1159046 1.3650961 -2.2899175 -0.72877187 1.2725023 -0.26494572 1.4070818
0.12208351 -0.08546938 -0.17870334 -0.43428645 -0.27431393 -0.0836384 0.09524258 -0.34672144
-1.0827991 -0.7988042 -1.3253816 -0.60768586 1.9772203 -2.046703 -0.38389826 0.31748244
0.25303945 0.3419041 -0.28678516 0.3026583 -0.4733433 0.2265829 0.21365677 0.09405805
-2.7921484 -0.6521821 0.7143333 -0.18361361 2.1156454 -0.10305354 0.804563 0.27457628
-0.1395248 -0.038518462 -0.12356924 0.22713408 -0.20453426 0.15712386 0.11324743 0.047976203
1.118204 -1.5553622 -0.00033051075 0.37527224 -0.7507225 -4.100179 -0.13750577 0.33731088
-0.10626055 -0.09157974 -0.57676685 -0.35439643 -0.19947992 0.18948461 -0.33720815 -0.57112986
-0.42925015 0.09575535 0.13413106 0.34299964 3.0046122 3.4367726 0.3918557 0.79757917
0.38100553 0.5571035 -0.4003288 0.16411814 -0.5022708 0.5949414 0.13061267 -0.44384795
0.49132606 0.9971731 -0.12563315 -0.47990286 0.014697071 -1.2807738 0.29682836 -0.30242783
-0.08136046 0.07437439 0.4776403 -0.18101089 -0.10651421 0.12555808 0.5460079 -0.34270114
0.8429104 -1.8390516 0.28266367 0.7316121 0.7403147 1.7300903 0.8856998 0.29378363
0.19804892 0.9905303 0.41264924 -0.62256676 -0.038022492 -0.25553262 0.44167832 -0.33869335
-1.4000063 0.10533518 -1.2271941 2.4562073 -1.4360646 0.1626853 0.9963995 0.5964481
-0.786253 0.80677855 -0.17336307 0.49845722 -0.09421805 0.2600727 -0.09132387 0.19247271
-0.38964134 -0.18346034 1.0751984 -0.112003714 -2.759123 2.0807858 -0.6259762 0.7341293
-0.006042547 0.15546048 -0.4949437 0.4495337 -0.5445442 0.39830366 0.030470178 0.049271114
1.6219919 0.8951161 -0.8269993 -1.6540879 2.0287492 -0.19260535 1.333165 1.4404799
-0.05685093 -0.50374204 0.32981607 0.28538868 0.30287316 -0.16071305 0.054835074 0.3962098
0.36996025 -0.9846074 -1.1766673 1.8626463 -0.54504704 -0.8569665 -0.10571807 -0.98810184
-0.1254662 -0.42795083 -0.027803138 -0.009629389 0.087415494 -0.08643128 -0.101783365 0.07733583
0.69858855 -1.6621827 -1.4288261 3.0507789 2.5709076 2.252313 0.1890652 1.0048567
-0.36983272 -0.18987983 0.10354574 -0.2804686 0.48759937 -0.62358093 -0.37644637 0.37704822
0.1328998 0.32667738 -0.43802235 -0.5540389 4.4375615 -0.18360068 0.30937648 0.05779463
0.11280087 0.09372486 -0.013962789 -0.17110778 0.12505086 0.007848625 -0.14132099 -0.17601207
-0.8257831 0.46216702 0.03641541 -0.4949012 3.140927 1.3439626 0.83559823 0.54689944
00000000: 34ef 45be 32be 55be af22 93bd e9d0 babd
00000010: 2880 2b3f 7780 35bf 0218 4bbf af5b 183f
00000020: 0ec9 1c3f 7a65 203f 3aff b43e 907f b03e
00000030: 831a 313e 63d3 f1bf a076 e9bf 74c0 7bbf
00000040: 9f1e bdbe 397a 0dbf 882c a7be ffb2 a7be
00000050: a443 613d f62f 86be a5c3 d3be 88e1 5bbc
00000060: 30ac 0f40 36cb d7be 2625 1440 ff48 1f3e
00000070: 81e6 233f 607e 70bf 75b0 3cbf 19f5 bbbe
00000080: 1259 043f d8e1 33be d867 babd 1897 9cbe
00000090: 445d 11be 4680 91be 2aaa 613d 3461 3f3c
000000a0: add3 efbd f6d5 8e3f 78bb ae3f 028e 12c0
000000b0: cb90 3abf 5be1 a23f f7a6 87be 421b b43f
000000c0: eb06 fa3d 920a afbd 02fe 36be cb5a debe
000000d0: e072 8cbe 9c4a abbd 8b0e c33d 7985 b1be
000000e0: 2999 8abf 6f7e 4cbf 1ba6 a9bf 4d91 1bbf
000000f0: 8e15 fd3f 2ffd 02c0 508e c4be 0f8d a23e
00000100: 638e 813e 0e0e af3e 81d5 92be 07f6 9a3e
00000110: 0e5a f2be 5905 683e d7c8 5a3e 82a1 c03d
00000120: 8fb2 32c0 68f5 26bf 8cde 363f 3505 3cbe
00000130: bc66 0740 bc0d d3bd d7f7 4d3f 4395 8c3e
00000140: 97df 0ebe 89c5 1dbd df11 fdbd d695 683e
00000150: 6e71 51be 14e5 203e 45ee e73d b282 443d
00000160: 4f21 8f3f 1c16 c7bf 6748 adb9 af23 c03e
00000170: 5a2f 40bf ab34 83c0 50ce 0cbe 03b4 ac3e
00000180: 229f d9bd 298e bbbd fea6 13bf 7373 b5be
00000190: 7744 4cbe 4108 423e 8ca6 acbe 9135 12bf
000001a0: adc6 dbbe 621b c43d a759 093e a69d af3e
000001b0: 914b 4040 15f4 5b40 4fa1 c83e 262e 4c3f
000001c0: 2813 c33e 569e 0e3f e5f7 ccbe 960e 283e
000001d0: d294 00bf 144e 183f 54bf 053e 0a40 e3be
000001e0: 178f fb3e bc46 7f3f faa5 00be d4b5 f5be
000001f0: fccb 703c 65f0 a3bf e3f9 973e d2d7 9abe
00000200: 50a0 a6bd 9a51 983d 458d f43e eb5a 39be
00000210: 1f24 dabd 4c92 003e 2cc7 0b3f 8676 afbe
00000220: fac8 573f 0b66 ebbf 4bb9 903e ee4a 3b3f
00000230: 4485 3d3f 9973 dd3f 39bd 623f cf6a 963e
00000240: 56cd 4a3e 6593 7d3f c346 d33e 8960 1fbf
00000250: 79bd 1bbd 2cd5 82be a923 e23e 3769 adbe
00000260: 6833 b3bf f9b9 d73d b214 9dbf 8032 1d40
00000270: f7d0 b7bf fa96 263e 0a14 7f3f d3b0 183f
00000280: e047 49bf 0a89 4e3f 1786 31be c935 ff3e
00000290: 65f5 c0bd 4028 853e 0208 bbbd 9117 453e
000002a0: 127f c7be 07dd 3bbe 1aa0 893f 3462 e5bd
000002b0: 7995 30c0 982b 0540 fa3f 20bf e6ef 3b3f
000002c0: 8f00 c6bb 0831 1f3e 4369 fdbe 4829 e63e
000002d0: 4067 0bbf 75ee cb3e 989c f93c 82d0 493d
000002e0: 6e9d cf3f 5426 653f 3ab6 53bf 27b9 d3bf
000002f0: 07d7 0140 563a 45be 27a5 aa3f a561 b83f
00000300: 85dc 68bd 3df5 00bf a7dd a83e 771e 923e
00000310: 3112 9b3e f691 24be be9a 603d 03dc ca3e
00000320: 6e6b bd3e 3b0f 7cbf 099d 96bf 326b ee3f
00000330: 3488 0bbf 2862 5bbf b782 d8bd 3ef4 7cbf
00000340: 367a 00be 5f1c dbbe 68c3 e3bc 96c4 1dbc
00000350: e506 b33d e202 b1bd cc73 d0bd 3f62 9e3d
00000360: b3d6 323f 67c2 d4bf c6e3 b6bf f63f 4340
00000370: c089 2440 e525 1040 4f9a 413e 259f 803f
00000380: b75a bdbe dc6f 42be ca0f d43d 9599 8fbe
00000390: a0a6 f93e 00a3 1fbf 94bd c0be 770c c13e
000003a0: e316 083e 4242 a73e 7744 e0be 7ed5 0dbf
000003b0: 8100 8e40 d101 3cbe 9866 9e3e 10ba 6c3d
000003c0: 2404 e73d d2f2 bf3d 2fc4 64bc e136 2fbe
000003d0: 550d 003e 8597 003c 73b6 10be 823c 34be
000003e0: 8566 53bf 28a1 ec3e 5328 153d b163 fdbe
000003f0: f304 4940 f706 ac3f c4e9 553f 9a01 0c3f

fc1.bias f4 [64]
-1.2187073 -0.47457805 0.77141964 0.6133519 -0.36922264 -0.07659473 1.635516 1.5384685
0.830288 -0.5762767 -0.91235083 -0.68466574 -0.7057449 0.9206091 1.1603953 -0.6181018
0.7162005 0.16870879 0.3998506 1.3223301 0.7754016 -0.74230796 1.1639584 -1.2455565
0.47473463 0.24669561 0.89276224 0.19740187 -0.3359261 0.013762786 0.30670556 0.024463713
0.67316216 1.1578697 1.3778973 0.1684179 0.7259364 0.62045765 -0.9218209 0.8948013
0.16527598 1.467546 -0.80663544 -0.8678052 -0.7879232 -0.8727044 1.6604575 0.72960764
1.4897172 -0.9008394 0.33565015 0.4347641 1.5358136 1.566875 1.6721747 1.7623514
-0.9576642 0.47394648 0.92909205 0.97606707 0.24724935 0.8767094 1.0457188 -0.58089805
00000000: 9afe 9bbf e5fb f2be c27b 453f a104 1d3f
00000010: c00a bdbe b3dd 9cbd 9758 d13f 89ec c43f
00000020: c18d 543f df86 13bf d38f 69bf 4146 2fbf
00000030: b3ab 34bf 0aad 6b3f d587 943f eb3b 1ebf
00000040: ea58 373f ffc1 2c3e 38b9 cc3e 1d42 a93f
00000050: b880 463f e507 3ebf 97fc 943f 656e 9fbf
00000060: 6b10 f33e c69d 7c3e 118c 643f b723 4a3e
00000070: 81fe abbe 4f7d 613c 8308 9d3e 2068 c83c
00000080: 5b54 2c3f 1335 943f f05e b03f be75 2c3e
00000090: f8d6 393f 50d6 1e3f 74fc 6bbf b311 653f
000000a0: 1b3e 293e 8cd8 bb3f a97f 4ebf 7b28 5ebf
000000b0: 56b5 49bf 8e69 5fbf df89 d43f 91c7 3a3f
000000c0: 0eaf be3f 699d 66bf 56da ab3e 6699 de3e
000000d0: 8a95 c43f 5c8f c83f d209 d63f bb94 e13f
000000e0: 7b29 75bf 1da9 f23e fad8 6d3f 88df 793f
000000f0: ef2e 7d3e 0770 603f 1dda 853f bcb5 14bf

fc2.weight f4 [64, 64]
-0.18992582 -0.30542502 -0.5251465 0.15121678 0.12809892 0.6231559 -0.7195732 0.23241
-0.35357395 -0.4254498 -1.2814313 0.67358047 -1.1375005 -0.68406665 -0.5835688 -0.18118294
0.31887707 -0.19334778 0.5997815 -0.27592286 0.023961382 -1.4088519 0.37494484 0.09317866
-0.24098796 0.1658273 0.52719736 -0.2943432 1.4024487 0.0460161 -0.69756943 0.5006007
0.23377708 0.28988677 -0.9262595 0.40496182 0.04642857 -0.22231756 -0.26979607 0.91905314
0.25924596 -0.8009673 -0.46537817 -0.4527302 -0.04133943 0.35821322 -0.0693301 -0.57165855
0.7765812 -0.23738909 0.80631566 0.032857414 0.6893957 2.477148 0.44923642 1.3714341
-0.9315064 -0.20776993 -0.48034015 -0.88698065 -0.3686265 -0.275034 -1.8964537 -0.056035608
-0.32408264 -0.7553841 -0.18340887 -0.35561705 -0.5041915 0.7785622 1.002119 -0.008199585
0.08310644 -0.08168957 0.30763006 0.014102443 -0.7477595 0.09299969 -0.507017 -0.260224
0.06210367 -0.15376408 0.35768104 0.6646324 -0.8036164 0.5363123 -0.2437799 0.25233054
-0.7019698 -0.82588303 0.36945355 -0.5616513 -0.36518666 0.16701956 0.79026496 -0.14749575
-0.9207595 0.10731324 0.50944245 0.425366 -0.58239573 -0.25345865 0.58892494 0.05653417
-0.10379166 0.36669222 -0.08672133 -0.08676058 0.59280616 -0.5058221 -0.02501701 1.0661567
-0.988152 -0.6386612 0.1700636 0.748274 0.7413593 -0.572547 0.17029706 -0.43445522
1.3423706 0.3062178 -0.3626031 0.07345509 1.2277625 -0.5586057 1.9389073 0.45776546
0.104733236 0.81556356 0.57169306 0.90773433 -0.41694388 0.08840721 0.18797395 -0.41152263
-0.27296513 -0.16470549 0.3755163 -0.03149547 -0.13316981 -1.2703655 -0.2766533 -0.32020697
-0.476512 0.09138602 0.69734746 -0.4444249 0.44090214 -0.13828605 -0.23742114 -0.19116543
0.40648887 -0.2940321 0.19118011 1.19831 0.14637102 0.70140886 0.1293966 0.35706785
0.6203977 -0.14732322 -0.2721273 -0.24591704 0.40969715 -0.78093386 0.16022319 1.0974205
1.2524672 -1.5670675 -0.2765773 0.8536834 -0.8702756 0.8477797 -0.027788643 -0.6187897
0.6026053 0.18969809 0.0902402 -0.3959014 -0.5600802 0.71009874 0.4584589 0.82967615
0.4398342 0.6360137 0.19184802 0.19864742 -0.4279774 -0.7238337 -0.85969406 -0.70984375
-0.29670992 0.1670309 -0.007893575 -0.09320471 -0.49304146 0.81522864 -0.31410357 0.7516756
-0.33365148 -0.44893026 0.49551415 0.46205437 0.8346478 1.4188228 0.93132436 0.18679473
1.4260341 0.15616529 -0.36004904 0.68349946 -1.3033057 0.5710545 1.0171024 0.06859826
0.35060036 0.38784468 -0.4085132 -0.05431819 1.7827544 -1.6221622 -0.4359087 -0.41039354
-1.7935405 1.1044259 0.63528425 -0.31763992 0.23476413 -0.117990345 -0.5873925 0.25022995
-0.47938877 0.3282525 -0.77825326 0.22401175 0.23235857 -0.3128589 0.118727185 0.46082819
0.02681836 0.7300161 0.7064757 0.21192981 0.15497716 1.0203903 0.13141797 0.29586485
-0.2908337 0.0038763387 0.09033782 0.27710468 1.223076 0.025405636 -0.2752247 0.17947288
00000000: ea7b 42be ab60 9cbe 0070 06bf 92d8 1a3e
00000010: 5d2c 033e 2587 1f3f f335 38bf e3fc 6d3e
00000020: a507 b5be 8ed4 d9be f105 a4bf c56f 2c3f
00000030: 9e99 91bf fe1e 2fbf c464 15bf 0588 39be
00000040: db43 a33e f6fc 45be 488b 193f c345 8dbe
00000050: a94a c43c 4255 b4bf c5f8 bf3e 74d4 be3d
00000060: 8cc5 76be a2ce 293e 68f6 063f 27b4 96be
00000070: 7083 b33f 617b 3c3d e993 32bf 5e27 003f
00000080: 4263 6f3e 0a6c 943e 581f 6dbf 2857 cf3e
00000090: e22b 3e3d 37a7 63be b622 8abe 1147 6b3f
000000a0: e3bb 843e 310c 4dbf 0c46 eebe 41cc e7be
000000b0: 8953 29bd b967 b73e f1fc 8dbd 3758 12bf
000000c0: 07ce 463f 2016 73be b46a 4e3f 7f95 063d
000000d0: 3d7c 303f 9889 1e40 5102 e63e 278b af3f
000000e0: 3477 6ebf a4c1 54be 25ef f5be 2a11 63bf
000000f0: 9dbc bcbe 42d1 8cbe ffbe f2bf 9885 65bd
00000100: 29ee a5be da60 41bf 89cf 3bbe 7013 b6be
00000110: b212 01bf da4f 473f 6f45 803f 8d57 06bc
00000120: b633 aa3d dc4c a7bd b081 9d3e ef0d 673c
00000130: 2b6d 3fbf 9f76 be3d decb 01bf 153c 85be
00000140: 6b60 7e3d 5574 1dbe f821 b73e 5925 2a3f
00000150: ceb9 4dbf c34b 093f 70a1 79be 7831 813e
00000160: 4bb4 33bf 126d 53bf 0429 bd3e 61c8 0fbf
00000170: bff9 babe 2d07 2b3e ce4e 4a3f 2009 17be
00000180: e5b6 6bbf 0bc7 db3d d26a 023f 93c9 d93e
00000190: e317 15bf 55c5 81be c9c3 163f 6090 673d
000001a0: b990 d4bd 15bf bb3e f49a b1bd 88af b1bd
000001b0: 25c2 173f 8f7d 01bf 79f0 ccbc d377 883f
000001c0: 88f7 7cbf 4d7f 23bf 2725 2e3e e38e 3f3f
000001d0: b9c9 3d3f 7192 12bf 5a62 2e3e ea70 debe
000001e0: cdd2 ab3f 94c8 9c3e 1da7 b9be 9f6f 963d
000001f0: 5227 9d3f c800 0fbf 1d2e f83f 3c60 ea3e
00000200: 617e d63d c6c8 503f 7a5a 123f 4761 683f
00000210: ab79 d5be d70e b53d 3e7c 403e 18b3 d2be
00000220: 16c2 8bbe 8ea8 28be ac43 c03e 6501 01bd
00000230: ab5d 08be 569b a2bf 80a5 8dbe 2bf2 a3be
00000240: 62f9 f3be 9828 bb3d 5d85 323f a98b e3be
00000250: edbd e13e dc9a 0dbe 871e 73be dfc0 43be
00000260: 4f1f d03e 608b 96be b8c4 433e 3962 993f
00000270: 49e2 153e 888f 333f 8b80 043e 99d1 b63e
00000280: 62d2 1e3f e6db 16be 4554 8bbe add1 7bbe
00000290: d3c3 d13e 48eb 47bf 8c11 243e 4678 8c3f
000002a0: d850 a03f ab95 c8bf 8a9b 8dbe ff8a 5a3f
000002b0: 62ca 5ebf 1708 593f 02a5 e3bc 0069 1ebf
000002c0: 5744 1a3f 3740 423e dbcf b83d 97b3 cabe
000002d0: 6a61 0fbf 08c9 353f 20bb ea3e a865 543f
000002e0: f331 e13e cbd1 223f cf73 443e 3b6a 4b3e
000002f0: db1f dbbe 2a4d 39bf e914 5cbf 52b8 35bf
00000300: 5dea 97be 260a 2b3e 0e54 01bc 1ce2 bebd
00000310: ee6f fcbe d3b2 503f 2fd2 a0be d06d 403f
00000320: 5ed4 aabe 30da e5be 08b4 fd3e 6492 ec3e
00000330: 7aab 553f fc9b b53f 466b 6e3f 1e47 3f3e
00000340: 4988 b63f cbe9 1f3e 5958 b8be d2f9 2e3f
00000350: b9d2 a6bf a130 123f 6930 823f 3f7d 8c3d
00000360: e481 b33e 9493 c63e a428 d1be c07c 5ebd
00000370: 4c31 e43f 03a3 cfbf 6d2f dfbe 1a1f d2be
00000380: bc92 e5bf d45d 8d3f fda1 223f b3a1 a2be
00000390: 0266 703e eca4 f1bd 5b5f 16bf 241e 803e
000003a0: 7272 f5be b610 a83e 9b3b 47bf 5663 653e
000003b0: 68ef 6d3e 0b2f a0be 3d27 f33d acf1 eb3e
000003c0: 2db2 db3c 56e2 3a3f 97db 343f 2104 593e
000003d0: 55b2 1e3e 269c 823f 6f92 063e 997b 973e
000003e0: 28e8 94be 2c0a 7e3b 0903 b93d aae0 8d3e
000003f0: c18d 9c3f 7b1f d03c 40ea 8cbe bdc7 373e

fc2.bias f4 [64]
0.3499975 -0.069805205 0.67180187 0.1313396 -0.59970933 0.47406623 0.41066265 0.3591933
0.09341998 -0.3228501 0.8594433 -0.012596841 -0.14653595 -0.28005004 0.043375995 0.513742
-0.5774197 0.3677 0.16698457 -0.045849405 1.1240766 0.18464419 -1.0203482 -0.2450718
0.45924067 0.29004636 0.29842874 -0.51431257 -0.17839329 0.053407807 1.3405619 -0.6320866
-0.16908845 0.99268186 -0.371745 -0.14498866 0.2815541 -0.488196 -0.3753133 -0.5517068
0.004258316 1.0317308 -0.21309184 -0.79818285 -0.399553 -0.4987725 0.75533026 0.87663424
0.74567837 0.84453183 0.6818983 0.48170364 -0.22326289 -0.13483812 -0.33324373 0.98851395
-0.4569067 -0.3951775 -0.870627 -0.19648528 -0.10168009 0.10170251 -0.33490103 -0.261259
00000000: df32 b33e 08f6 8ebd 35fb 2b3f e37d 063e
00000010: 8d86 19bf cfb8 f23e 6042 d23e 2fe8 b73e
00000020: f952 bf3d 9c4c a5be 7a04 5c3f fb62 4ebc
00000030: 850d 16be b862 8fbe 07ab 313d 9984 033f
00000040: c7d1 13bf 2d43 bc3e 01fe 2a3e 96cc 3bbd
00000050: bee1 8f3f 5e13 3d3e c59a 82bf 1af4 7abe
00000060: 9821 eb3e f580 943e a7cb 983e fda9 03bf
00000070: bbac 36be 25c2 5a3d 8897 ab3f 6dd0 21bf
00000080: 8625 2dbe 6620 7e3f 5c55 bebe e877 14be
00000090: dc27 903e d3f4 f9be 1129 c0be a83c 0dbf
000000a0: 5889 8b3b c10f 843f bf34 5abe b655 4cbf
000000b0: 3692 ccbe 1c5f ffbe 535d 413f 1a6b 603f
000000c0: c7e4 3e3f 3d33 583f e390 2e3f dca1 f63e
000000d0: 079f 64be 0113 0abe ec9e aabe 400f 7d3f
000000e0: adef e9be b554 cabe 69e1 5ebf 7033 49be
000000f0: a73d d0bd 6849 d03d 2678 abbe bdc3 85be

fc3.weight f4 [64, 64]
0.0072517223 0.0022670843 0.19125581 0.7103666 0.8012129 0.32611308 1.201643 0.17875929
0.50148714 -1.2421415 -1.1446134 0.14740321 0.5757442 0.23301636 0.5303186 -0.59527135
-2.031301 -0.1743907 -0.33826113 0.39762318 -1.400327 -0.85421145 0.7639056 -1.1433953
-0.48286727 0.18949062 0.33306453 0.17847425 0.14179257 1.1997472 -0.30129042 -0.78490466
0.7382506 -2.0895038 -1.3599219 -0.13916682 -0.2805003 -0.107101515 -0.6663474 -0.16855079
0.5626451 -0.25968874 0.060004 -0.19125682 -0.41691604 1.4897153 0.052811272 0.22807948
-0.053562608 0.008890327 0.5251714 0.5873037 0.12657487 -0.01081907 0.77358735 -1.4559038
0.3428678 -0.38023788 -1.4128407 0.021248769 0.39357957 1.4373451 0.76123255 -0.108497016
-0.017926672 0.062781535 -0.06013237 -0.15862787 -0.14138985 0.047408126 -0.019807529 -0.095814005
-0.11708482 -0.14463818 -0.10789887 -0.098136775 -0.15348215 -0.032210816 0.019833509 0.023274964
0.026424784 0.050076563 -0.032591842 -0.020363085 -0.04870923 -0.11959817 0.0017887084 -0.16630769
-0.10135475 -0.1537322 -0.10553813 -0.033858746 -0.097041145 -0.03020344 -0.09920472 0.045221318
-0.1502887 0.05273868 0.04959541 -0.065399565 -0.013149978 0.013657284 -0.06656343 0.016607994
0.029765109 -0.05076784 -0.17264009 -0.1839147 0.041773196 0.02869199 -0.003057135 -0.02680739
-0.10897825 0.021410244 -0.14966421 0.05066173 -0.1642539 -0.10368625 -0.10370577 0.07182719
-0.12789243 -0.14865899 -0.06563642 0.006511251 -0.13153249 -0.21596538 -0.07571293 -0.0026993623
0.78838277 -1.5961217 -0.032353047 -1.8427349 -0.3734137 -0.4823574 -0.8153413 -0.018033229
-1.0032277 0.4864043 1.5771769 0.5764998 0.3429991 0.1168601 -0.75561935 -0.8768139
-1.154121 -0.67604977 -1.0557345 0.8426106 -0.43601617 0.5158546 -2.5243752 0.29482043
-0.41006887 0.57328343 -0.2611886 -0.9424928 0.10317456 0.34671813 0.36817935 0.23853008
-0.5633279 0.38712114 -1.5348366 -0.044274475 0.18036547 -0.8037167 0.5293544 0.349426
0.14323556 -0.5206264 -0.06831249 -0.09065735 -1.6193751 0.019364962 -0.09671623 0.52489424
0.12051275 -1.0517683 -1.2026861 0.010947331 0.53284156 0.035602324 -0.25391582 0.8529679
-0.25295258 -1.0345186 0.62370723 -0.2613062 0.19446768 0.07658687 -0.07377856 -0.54805076
-0.36318582 -0.2656865 0.8658487 -0.39871794 0.33769885 -0.42669952 0.9149691 0.37125015
-0.44550776 -0.45812905 0.35033426 1.0704309 0.22731605 0.19207518 -0.15150876 0.7059469
-0.236047 -0.32343194 -0.23629005 -0.11882619 -0.789231 -0.08130605 0.25887564 -1.1545488
0.30423847 1.4836397 -0.17527536 -0.042885933 0.009753288 0.19520171 1.3557746 -0.1258717
0.5829191 1.3514487 -1.3825848 0.22297876 0.38423085 -0.49486127 -0.933865 -0.43781286
0.9450212 0.8208069 0.13084808 0.03809479 -1.0804276 -0.88749194 -0.60401285 1.0350358
0.8369207 0.86755043 0.3354095 1.36388 -0.05456806 0.10965405 -0.7914446 0.6819364
0.24147855 0.021568308 -1.5411447 -0.9431628 0.39858416 1.3141954 0.63071096 -0.023828523
00000000: db9f ed3b 5d93 143b 90d8 433e 96da 353f
00000010: 4a1c 4d3f 4bf8 a63e 70cf 993f ad0c 373e
00000020: 7661 003f 7efe 9ebf b182 92bf def0 163e
00000030: f963 133f d79b 6e3e f6c2 073f b463 18bf
00000040: d600 02c0 7a93 32be 9030 adbe 4495 cb3e
00000050: ea3d b3bf 9aad 5abf 518f 433f c75a 92bf
00000060: 613a f7be d409 423e 6f87 aa3e f4c1 363e
00000070: 1232 113e 5191 993f bd42 9abe 83ef 48bf
00000080: fefd 3c3f 6eba 05c0 ec11 aebf bf81 0ebe
00000090: bc9d 8fbe 0a58 dbbd be95 2abf 9498 2cbe
000000a0: 8209 103f ecf5 84be c1c6 753d d4d8 43be
000000b0: 0576 d5be feae be3f a250 583d ab8d 693e
000000c0: 7764 5bbd bca8 113c a271 063f 8959 163f
000000d0: d89c 013e 7842 31bc d209 463f 0e5b babf
000000e0: 5e8c af3e 8aae c2be f7d7 b4bf e611 ae3c
000000f0: 4383 c93e edfa b73f 23e0 423f af33 debd
00000100: f5da 92bc 9b93 803d 5c4d 76bd 586f 22be
00000110: 80c8 10be 062f 423d 6643 a2bc 223a c4bd
00000120: 2bca efbd 081c 14be 15fa dcbd effb c8bd
00000130: 6d2a 1dbe 7def 03bd e279 a23c 23ab be3c
00000140: ca78 d83c 151d 4d3d 067f 05bd 7cd0 a6bc
00000150: 5483 47bd e3ef f4bd 1873 ea3a 904c 2abe
00000160: 1493 cfbd f96b 1dbe 6024 d8bd 78af 0abd
00000170: 82bd c6bd 346d f7bc d82b cbbd fd39 393d
00000180: 48e5 19be 8404 583d 8e24 4b3d 35f0 85bd
00000190: 0173 57bc cdc2 5f3c 6852 88bd 7d0d 883c
000001a0: f5d5 f33c f0f1 4fbd 90c8 30be 2354 3cbe
000001b0: 5f1a 2b3d 770b eb3c 375a 48bb 2c9b dbbc
000001c0: fd2f dfbd 8964 af3c 9341 19be ad82 4f3d
000001d0: 2d32 28be 7559 d4bd b163 d4bd 221a 933d
000001e0: 3cf6 02be 103a 18be 636c 86bd 555c d53b
000001f0: 74b0 06be 0726 5dbe 610f 9bbd c9e7 30bb
00000200: 74d3 493f b74d ccbf a184 04bd bdde ebbf
00000210: 1530 bfbe 8df7 f6be 35ba 50bf 6cba 93bc
00000220: c469 80bf fc09 f93e efe0 c93f 7e95 133f
00000230: 949d af3e 5954 ef3d 4570 41bf e076 60bf
00000240: 3dba 93bf 9911 2dbf 4f22 87bf 54b5 573f
00000250: 833d dfbe 0c0f 043f 5d8f 21c0 b4f2 963e
00000260: 8cf4 d1be b4c2 123f 83ba 85be 3547 71bf
00000270: 2f4d d33d 0a85 b13e 0182 bc3e 3b41 743e
00000280: 4236 10bf be34 c63e 8775 c4bf 2759 35bd
00000290: bab1 383e 61c0 4dbf c583 073f f7e7 b23e
000002a0: 58ac 123e c647 05bf 6be7 8bbd 90aa b9bd
000002b0: af47 cfbf 45a3 9e3c 2913 c6bd 785f 063f
000002c0: 64cf f63d 58a0 86bf 9ef1 99bf 6f5c 333c
000002d0: 4e68 083f bed3 113d 4101 82be 1b5c 5a3f
000002e0: 0083 81be 1b6b 84bf 47ab 1f3f edc9 85be
000002f0: 8922 473e 94d9 9c3d 3719 97bd 0e4d 0cbf
00000300: 7ef3 b9be 1008 88be 43a8 5d3f c224 ccbe
00000310: dde6 ac3e 5c78 dabe 6a3b 6a3f 8014 be3e
00000320: 9819 e4be e48f eabe 035f b33e e103 893f
00000330: 8ac5 683e 5baf 443e 1d25 1bbe f0b8 343f
00000340: 4eb6 71be df98 a5be 05f6 71be 255b f3bd
00000350: 0b0b 4abf c983 a6bd 598b 843e 41c8 93bf
00000360: 25c5 9b3e e8e7 bd3f 627b 33be 29a9 2fbd
00000370: 41cc 1f3c f5e2 473e 068a ad3f 83e4 00be
00000380: 303a 153f 45fc ac3f 8af8 b0bf 8b54 643e
00000390: e8b9 c43e 755e fdbe c711 6fbf 0229 e0be
000003a0: e9ec 713f 6720 523f 0afd 053e 4809 1c3d
000003b0: 744b 8abf ac32 63bf 96a0 1abf 0e7c 843f
000003c0: 6f40 563f c917 5e3f cbba ab3e 9f93 ae3f
000003d0: c282 5fbd 4d92 e03d 1d9c 4abf 6293 2e3f
000003e0: 2746 773e 05b0 b03c 3b44 c5bf 1e73 71bf
000003f0: 3913 cc3e 8e37 a83f 4676 213f 0934 c3bc

fc3.bias f4 [64]
-0.23087837 -0.21496056 -0.1940802 1.1233706 -0.22362217 -0.23507348 0.71016383 0.9736614
0.56305426 0.33899292 -0.09744312 -0.23463647 0.09106277 -1.0363765 -0.35333446 0.09535912
0.4933206 -0.36744046 1.1172342 -0.5259288 0.4383697 -1.2388828 -1.0084683 1.0664178
0.31802383 0.61705303 0.114871055 0.34773356 1.0440757 -0.1814399 0.34742513 -0.30489174
-0.30745333 -0.38025194 0.13706483 0.68857086 0.3160158 -0.012257321 0.14082474 0.48105595
0.36653674 0.056320757 -0.67679363 0.02729859 -0.5917264 0.26879796 0.5359967 -0.6468908
-1.323055 0.5963919 -0.0014401253 -0.035112746 0.15020841 0.5973214 0.39458764 0.41886094
-0.52704835 -0.10367719 -0.053847093 0.1750715 0.4571378 0.41695285 0.94081175 -1.1139264
00000000: 616b 6cbe 9f1e 5cbe f6bc 46be 9cca 8f3f
00000010: 36fd 64be 1ab7 70be 4ccd 353f e041 793f
00000020: 5324 103f 7b90 ad3e 4290 c7bd 8b44 70be
00000030: 1e7f ba3d fca7 84bf 41e8 b4be a44b c33d
00000040: 8594 fc3e 2821 bcbe 8801 8f3f 45a3 06bf
00000050: fe71 e03e b693 9ebf 7d15 81bf 6180 883f
00000060: 05d4 a23e 30f7 1d3f 8441 eb3d 220a b23e
00000070: 46a4 853f 62cb 39be b5e1 b13e c51a 9cbe
00000080: 866a 9dbe 62b0 c2be b95a 0c3e 2e46 303f
00000090: d3cc a13e eed2 48bc 5c34 103e f74c f63e
000000a0: b4aa bb3e 98b0 663d 5942 2dbf 4ba1 df3c
000000b0: 627b 17bf e39f 893e 1437 093f a39a 25bf
000000c0: de59 a9bf 24ad 183f 96c2 bcba 62d2 0fbd
000000d0: 3cd0 193e 0eea 183f 6407 ca3e f174 d63e
000000e0: a4ec 06bf b554 d4bd c58e 5cbd f145 333e
000000f0: f70d ea3e d87a d53e 0ad9 703f 2495 8ebf

action_out.weight f4 [5, 64]
0.22041894 -0.04073105 -0.6403468 -0.46406177 -1.0193155 -0.14286232 -0.8283147 0.24654232
0.5584369 -3.197368 0.94308597 1.2847759 0.17257418 0.37156248 -0.7044075 -0.29426712
0.2810756 -0.0683552 1.6309879 0.9920138 -0.69264835 -0.115682885 0.86191636 -0.43643817
-0.57826376 0.8761074 0.1720338 0.19877121 0.8925379 -0.02947805 -1.0983756 0.27695447
0.25548032 0.43459517 -0.13111994 -0.5937824 1.9618065 -0.079858266 1.2989197 -0.4552834
-0.59218186 -0.3581015 -1.1027867 -0.11784857 1.897269 -0.8570028 -0.2544783 0.51366574
1.6547326 -1.3592535 0.80506253 1.2911311 0.6297759 0.3905747 0.3435207 -0.7133659
-0.23922698 -0.42481616 0.90185416 -0.3310322 0.81307745 0.29474634 -1.0698462 0.068395555
-0.29103604 -0.0059127426 -0.36491725 -0.47542787 -0.44120818 -0.06742037 0.79401 1.1804761
0.4064324 -1.2027693 0.65057194 -0.4013874 -0.047241163 0.11109985 -1.5664515 0.37149456
-0.55729455 0.24839726 0.25275955 -1.2123046 0.8041123 -1.304787 -0.052492887 0.8637584
-0.78759503 0.042465046 0.81915087 -0.17030762 0.27277038 -0.026246576 -1.082634 -0.36432472
0.9750939 -0.12480502 -0.80259913 0.26106682 -0.31987447 0.10875509 0.98610437 0.35313168
-0.5293938 0.3517163 -1.0967281 1.4149325 0.542034 1.6317859 -1.043791 -0.16100691
-1.1068127 -0.15081118 -1.058968 -0.3673388 -1.3856932 0.46079412 -0.78892785 -0.8785794
0.521997 -0.26798505 -1.0400499 1.5270158 0.4068504 1.4498411 -0.38477963 1.1667213
-0.7468942 -0.0041979663 0.6737416 -0.031880613 -0.19078015 0.016427444 -0.33240083 -0.58736104
-0.24673954 -0.23039886 -0.072542444 -0.48231444 0.0499197 0.19737127 0.9817958 0.28366867
1.3175128 -0.37143856 -0.5857976 0.8606269 -0.57008225 0.88333976 0.33772212 -0.95275444
0.28308362 -0.3486893 -0.8062217 0.2637984 -0.7377097 -0.029807752 0.74410456 0.69283736
-0.35743442 -0.28524074 0.8015619 -0.64035124 -0.115400694 -0.10856198 -0.39191896 -1.2688519
0.56534666 -0.9907406 -0.6760456 -0.30395067 0.30765402 -0.9484584 0.5055705 0.48656034
-0.101631574 0.12763306 0.25023028 0.10662532 0.69138443 -0.47517693 0.5057722 0.87935746
0.07887739 -0.33557686 0.949411 -1.0154307 -0.28708032 -0.8976852 0.28589305 -0.064655565
-1.1864816 -0.009847782 0.105470195 0.20417567 -0.34167922 -0.088665284 -0.08509291 -0.22452682
1.0412545 -0.05586886 1.0959636 0.24067512 -0.19316952 0.90835506 1.4778509 0.4914849
0.21530706 0.24064602 0.12616438 1.134042 0.10522071 0.4040022 0.7289049 0.11119267
0.49844804 -0.8121906 0.09921936 -0.23687531 -0.777162 -0.04043989 -0.1037227 -1.2964054
-0.29732674 0.5023312 -0.59141326 -0.2970415 -0.67186296 0.00088443456 1.9821748 0.46619853
-0.10966875 -0.894746 0.49936163 0.26099905 0.5298274 -0.2292666 -0.45216182 0.14726321
-0.18776855 -0.75040305 0.67620367 0.91366655 -0.47811168 -0.23889789 0.11182016 0.5944982
0.80281746 -1.092442 -0.77766645 -0.18590222 0.32224628 0.3470613 -0.6651987 0.29798728
00000000: 81b5 613e 9ad5 26bd c5ed 23bf 8199 edbe
00000010: ee78 82bf 804a 12be 6f0c 54bf 9775 7c3e
00000020: b8f5 0e3f ada1 4cc0 156e 713f 8973 a43f
00000030: 49b7 303e 703d be3e 0d54 34bf 2eaa 96be
00000040: 24e9 8f3e d0fd 8bbd 36c4 d03f 9ef4 7d3f
00000050: 6751 31bf 26eb ecbd 8da6 5c3f d374 dfbe
00000060: 1809 14bf 9348 603f a129 303e ae8a 4b3e
00000070: 5d7d 643f f47b f1bc 9297 8cbf facc 8d3e
00000080: 51ce 823e 4283 de3e 4e44 06be 2002 18bf
00000090: 7a1c fb3f bb8c a3bd 0043 a63f e81a e9be
000000a0: 3b99 17bf 1459 b7be 1d28 8dbf 975a f1bd
000000b0: b6d9 f23f 8964 5bbf fb4a 82be 997f 033f
000000c0: 47ce d33f 05fc adbf 9418 4e3f c943 a53f
000000d0: fe38 213f 68f9 c73e f2e1 af3e 269f 36bf
000000e0: ebf7 74be 8181 d9be eadf 663f 0d7d a9be
000000f0: d825 503f fee8 963e b8f0 88bf f812 8c3d
00000100: ad02 95be aebf c1bb 6fd6 babe 486b f3be
00000110: 0ae6 e1be b113 8abd 3d44 4b3f d719 973f
00000120: e817 d03e 58f4 99bf e28b 263f a682 cdbe
00000130: f37f 41bd 5188 e33d 7c81 c8bf 8934 be3e
00000140: dbaa 0ebf da5b 7e3e b369 813e cc2c 9bbf
00000150: 4eda 4d3f 4303 a7bf c802 57bd 451f 5d3f
00000160: d49f 49bf d4ef 2d3d dfb3 513f 1f65 2ebe
00000170: 8fa8 8b3e 0f03 d7bc c093 8abf c588 babe
00000180: c19f 793f c699 ffbd 2377 4dbf 8daa 853e
00000190: 96c6 a3be fdba de3d 5671 7c3f adcd b43e
000001a0: 5a86 07bf 2914 b43e 9661 8cbf 821c b53f
000001b0: bdc2 0a3f 5cde d03f f29a 85bf ffde 24be
000001c0: 0aac 8dbf 3f6e 1abe 438c 87bf d513 bcbe
000001d0: 655e b1bf 35ed eb3e 2df7 49bf 94ea 60bf
000001e0: 98a1 053f 5635 89be 5b20 85bf 4175 c33f
000001f0: b24e d03e 6594 b93f d601 c5be 2057 953f
00000200: 7534 3fbf 188f 89bb 547a 2c3f 3f95 02bd
00000210: df5b 43be d992 863c 7130 aabe 4b5d 16bf
00000220: 4aa9 7cbe aeed 6bbe 2291 94bd ebf1 f6be
00000230: 9978 4c3d b21b 4a3e f856 7b3f 053d 913e
00000240: 42a4 a83f 322d bebe d5f6 15bf 0b52 5c3f
00000250: e9f0 11bf 8e22 623f eae9 ac3e b7e7 73bf
00000260: 56f0 903e 6787 b2be 8c64 4ebf 9510 873e
00000270: 8bda 3cbf 632f f4bc a37d 3e3f ca5d 313f
00000280: a501 b7be 130b 92be 2933 4d3f 0fee 23bf
00000290: 3357 ecbd be55 debd 9aa9 c8be bd69 a2bf
000002a0: 8fba 103f 2da1 7dbf 5311 2dbf 6c9f 9bbe
000002b0: d484 9d3e 2bce 72bf 116d 013f 701e f93e
000002c0: 3724 d0bd 3eb2 023e 2f1e 803e 605e da3d
000002d0: 92fe 303f 644a f3be 497a 013f 921d 613f
000002e0: 788a a13d bbd0 abbe 990c 733f a2f9 81bf
000002f0: 31fc 92be b3ce 65bf 9360 923e 236a 84bd
00000300: a1de 97bf 9758 21bc c200 d83d 6d13 513e
00000310: 94f0 aebe 2596 b5bd 3145 aebd 5cea 65be
00000320: d447 853f bfd6 64bd 8948 8c3f 8a73 763e
00000330: 3bce 45be f589 683f 382a bd3f e9a3 fb3e
00000340: 7479 5c3e e96b 763e 3c31 013e 4a28 913f
00000350: f57d d73d 60d9 ce3e 8399 3a3f fcb8 e33d
00000360: 9534 ff3e b9eb 4fbf 8533 cb3d 718f 72be
00000370: 17f4 46bf 4ca4 25bd 916c d4bd 9df0 a5bf
00000380: 363b 98be c798 003f dc66 17bf d315 98be
00000390: 36ff 2bbf 66d9 673a e7b7 fd3f 93b1 ee3e
000003a0: 029a e0bd 130e 65bf 54ac ff3e aba1 853e
000003b0: c5a2 073f ddc4 6abe c181 e7be 2bcc 163e
000003c0: 6646 40be 6a1a 40bf af1b 2d3f 0de6 693f
000003d0: 0ecb f4be a6a1 74be f801 e53d 0931 183f
000003e0: 7285 4d3f 24d5 8bbf 2615 47bf 275d 3ebe
000003f0: 77fd a43e 05b2 b13e 764a 2abf ca91 983e

action_out.bias f4 [5]
-0.3332181 0.2881345 -0.58166116 -0.31320196 0.74347687
00000000: 909b aabe 5d86 933e bfe7 14bf 025c a0be
00000010: 8054 3e3f
