model/simple_tag/agent_1/critic_params.pkl (torch_old, 51179 bytes, 7 tensors)

fc1.weight f4 [64, 63]
00000000: cab7 ebbe c0fc 543e 25a1 d9bf f37b 10be
00000010: 4966 4cbf d20d b83e 11aa 89bd 4bf2 0940
00000020: a8a0 0840 eed4 193e a969 b43d 51f6 c23f
00000030: 8838 5440 51d8 8a3f 1766 1f3d 41e0 2ebf
00000040: 3ebb 40be acbb c03e 53c7 aebf c2ae 2140
00000050: 912c b3be 6726 e3bf 32e5 93bf 955b aebf
00000060: 02e2 03c0 6d3b e2bd c238 91bf 3a9e 013e
00000070: e963 833f d01e a0bf 369f c63d a566 1bbf
00000080: 4ab5 49bf 0697 073e f371 96bf 8398 093f
00000090: 70b9 5abf fd2b db3d 5a12 76bf 4a44 ae3f
000000a0: 6940 acbd 5f26 aebf c6f0 9a3f 5ca8 7e3d
000000b0: 0982 6040 a4c5 4dc0 7725 143d 5fc3 27bf
000000c0: 638d d63d 5ea8 13bf a470 9cbe 1bf8 953e
000000d0: 8d7f 9abe 4231 8fbd 888a 05bf af18 7d3c
000000e0: 5935 323e 34c9 b73c fa3a 55be 5747 0bbf
000000f0: 8b09 fa3e 645f 4e3d 2574 e0bd 85c1 543f
00000100: 9617 6f3f f0d8 613e b45e f83d 3e35 dabe
00000110: 6370 cfbe 2460 dfbd dcee 40bd f96a 18bf
00000120: f168 6a40 0a8f 13bd 3a8b 413f 3fd4 9b40
00000130: bf30 ccbf 0c7c f83f f751 fc3f b80f 953f
00000140: b3d4 013f b105 fdbd 078a 8b3e ca79 f9bc
00000150: c0a5 82be 68b9 85be 64d4 6bbe b3be 0e3f
00000160: 7ff7 66c0 0254 eb3e 4930 b6be e3a3 9840
00000170: 1af4 14bf 68b3 fd3f 7dcd e53f 87b1 1b3f
00000180: 8107 fb3e 89ae bdbe 1c71 f7be 814c 133e
00000190: 8a8e f13e 2751 fd3e df64 eb3e c7eb 1e3e
000001a0: 9e63 6fbf 2052 e5be 8a39 653e 615d 0740
000001b0: 25ab 3e40 ee0b f03f a12c f33f a223 47bd
000001c0: 9666 89bd eb51 7ebe dd9b 193f 3caa 94be
000001d0: 94dc bf3d 48fc ce3e 700c b73d 061b 4c3e
000001e0: d093 84be 2159 da3d e60c f53e a6c1 79be
000001f0: 3fda f7bc a338 74be fb79 f43e bcab 643f
00000200: 28aa 813e 473a 543f b8c5 48bd bf99 f13e
00000210: e659 3a3e 63ed bebe 050a 043f 1e70 2ec0
00000220: 3dc9 91bf e196 283e 066d e0bf 44e8 6640
00000230: addc 0e3e 7c87 ea3e 6bae 84be a575 bcbe
00000240: 8a83 21bf 6a5a 9b3f 159a 6bbe 2566 273e
00000250: 314d 283f 5960 09bf 7f94 01bf 1477 2840
00000260: a44e c6be 6e00 1040 20a6 0ec0 a9b4 6440
00000270: 2595 3e3e 5e53 d43e 1357 16be 6658 723e
00000280: f539 3c3e add6 a93f 0b23 38be 5d75 01bd
00000290: 72ae 96bd 9646 5cbf 5de9 863f e1f5 6f3b
000002a0: 647b 903e 6827 11c0 d6a7 f5bf 875b 90be
000002b0: cdce 1e3e 28c3 0a3f 4b53 f3bd ab1a ba3d
000002c0: a9b9 23bb 145a 763e 01ce 0cbf 72f7 cdbc
000002d0: 6c44 c1bd 60c8 ae3d f5f2 8cbe 2147 ac3e
000002e0: 62e6 e8bd f733 3bbe df89 233d c5e9 803e
000002f0: a8f4 dc3c e71c e5be a9a0 47bf 41b2 a0be
00000300: d18e 78c0 b264 b63f e094 6cbe 86b7 04c0
00000310: 960e b9bd be4b a33f 6e0f 243f 33ac 573f
00000320: cdd1 97bf 1a27 2dc0 2150 f6be d7cf f03f
00000330: 4ece a63e 1111 d33e 6414 253f 1b62 40be
00000340: 0124 10bf 371f 963f a6f4 35c0 965c efbe
00000350: 79f2 07c0 3408 8ebf 4e88 30bf 70c1 76be
00000360: 867b a43f 29f0 d7bf 1ab7 5140 5fd4 ea3f
00000370: 8243 cc3e c322 c53e ee7a 3c3f 1009 9cbe
00000380: fffb 12c0 6289 423d 292d 80bf ff4a aebf
00000390: eba2 b5be 23c6 49bf 5f04 873f d1bb ad3e
000003a0: 88df 98bf f3b2 183f e018 d93e 6b97 f23f
000003b0: 2456 d23e 8962 183f 81e9 3fbf 21dd 84be
000003c0: e998 c4be 9911 af3e 1295 633e fa13 333f
000003d0: 034b 693f c826 67be 4420 ad3e df1b 43bf
000003e0: 0c36 17bf c9a7 ddbd 651d 71be 2add 2640
000003f0: 7e04 60bf 6999 913d 2329 dabd 8b41 b0be
-0.46038657 0.20799541 -1.7002302 -0.14109783 -0.79843575 0.35948044 -0.06721891 2.1554134
2.1348057 0.15022632 0.088092156 1.523142 3.3159504 1.0847265 0.03891572 -0.68310934
-0.18821427 0.37643182 -1.3654579 2.5262914 -0.3499494 -1.7746094 -1.155432 -1.3621699
-2.0606694 -0.11046491 -1.1345446 0.12658015 1.0264865 -1.2509403 0.09698336 -0.607035
-0.7879225 0.13241205 -1.1753525 0.5374834 -0.85439205 0.107017495 -0.9612175 1.361459
-0.08410723 -1.360546 1.2104728 0.06217228 3.5079367 -3.215188 0.03616854 -0.6553249
0.10476186 -0.5767878 -0.30554688 0.29290852 -0.3017544 -0.06991817 -0.52164507 0.01544778
0.17403163 0.022434808 -0.20823279 -0.5440573 0.48835406 0.05038394 -0.10959653 0.8310779
0.93395364 0.22055411 0.12127438 -0.42618746 -0.40515432 -0.10907009 -0.047102794 -0.5953823
3.662655 -0.036025085 0.7560307 4.869659 -1.5952376 1.9412856 1.9712514 1.1645422
0.5071518 -0.12354601 0.27253744 -0.030453581 -0.25517082 -0.26118016 -0.2303024 0.55759734
-3.608856 0.4596253 -0.35583714 4.7700057 -0.5818497 1.9820375 1.7953335 0.6081776
0.49029163 -0.37047222 -0.48328483 0.14384653 0.4717906 0.49475977 0.45975396 0.1551963
-0.9351138 -0.4478922 0.2238523 2.1150744 2.9791958 1.8753641 1.8997995 -0.048617966
-0.0670902 -0.24835937 0.60003453 -0.2903613 0.09368244 0.4042685 0.08937919 0.19932184
-0.25894022 0.10661531 0.47861403 -0.24390277 -0.030255435 -0.2384973 0.47749314 0.89324546
0.2532513 0.82901424 -0.049016684 0.4718761 0.18198356 -0.37290487 0.5157779 -2.725593
-1.1389538 0.16463806 -1.7533271 3.6079264 0.13951369 0.4580649 -0.2591432 -0.36808506
-0.6309134 1.2136967 -0.23007996 0.16347559 0.65742785 -0.5366264 -0.5061721 2.632268
-0.38731873 2.2500262 -2.2288895 3.5735266 0.18611582 0.41469854 -0.14681654 0.23666534
0.18381484 1.3268639 -0.17982118 -0.031606067 -0.073574916 -0.86045206 1.0539967 0.003661506
0.2821914 -2.2680302 -1.9191844 -0.2819483 0.15508576 0.54204035 -0.11881121 0.09087118
-0.0024982488 0.240578 -0.55001837 -0.025142405 -0.094368786 0.08534312 -0.27529112 0.33648017
-0.11372067 -0.18281542 0.039926406 0.25178352 0.02697213 -0.44748613 -0.7797952 -0.31385997
-3.8837168 1.424948 -0.23103666 -2.0737014 -0.09035985 1.275749 0.64086044 0.8424713
-1.1860901 -2.7055116 -0.48108009 1.8813428 0.32579273 0.41223958 0.6448424 -0.18787424
-0.5630494 1.1728276 -2.8430572 -0.46750325 -2.1241744 -1.1096253 -0.68957984 -0.24097228
1.2850196 -1.6870166 3.2768006 1.834606 0.39895254 0.38503084 0.73625076 -0.30475664
-2.2966306 0.0474943 -1.0013782 -1.3616637 -0.3547586 -0.7881796 1.0548209 0.33932355
-1.1943216 0.59648055 0.4240179 1.8952459 0.41081345 0.5952535 -0.74965674 -0.25949958
-0.3839791 0.34193113 0.22224835 0.69952357 0.91130084 -0.22573388 0.3381368 -0.762144
-0.59066844 -0.10823018 -0.2354637 2.6072488 -0.87506855 0.07109339 -0.106523775 -0.34425005

fc1.bias f4 [64]
00000000: c758 90c1 3e9d eac0 7977 4ac1 4107 76c1
00000010: 6a52 e5c0 67cb 2bc1 1843 83be a6d8 7fbf
00000020: c279 d7c0 dec7 cfc0 6036 2ebf 2460 e0be
00000030: 05c6 2dc1 8b6e 69c1 bed4 51c1 b484 a8be
00000040: f215 28bf 45b8 893e 01b8 4e3f fdd6 cdbf
00000050: 8e44 bcc0 ae88 c4c0 81c2 19c0 2161 e4c0
00000060: 2616 9040 d5c3 2ec1 0539 1fbf 37d5 b3bf
00000070: 8412 58be d437 54c1 a07c 05c1 5cfb 61c0
00000080: 0a4a 86c0 79ef 85c1 8ed4 893e aafb 1bc1
00000090: 5726 44c1 ffb5 60bf 70c3 17c1 4d8f 6c41
000000a0: 5f3e a8c0 f05c cfbe 6d52 0140 0e4c 1fc1
000000b0: c90c 213e dae8 973e 233a 6fc1 1f77 56bf
000000c0: dcb2 26c1 4c97 01c1 1247 083f 4869 a9be
000000d0: f737 95c0 a695 12bf 8082 03c1 6c18 c93e
000000e0: 1f4d bdbf 8585 3cc1 2cb6 b63e 8139 8abf
000000f0: 99d1 553d fad6 3a3e bec7 81be 6999 68bc
-18.043348 -7.3316946 -12.654168 -15.376771 -7.1663103 -10.737159 -0.25637126 -0.99939954
-6.733613 -6.493148 -0.6805172 -0.4382335 -10.860845 -14.589488 -13.114439 -0.32913744
-0.65658486 0.268984 0.8074952 -1.6081234 -5.8833685 -6.1416845 -2.4024966 -7.1368566
4.5027037 -10.922811 -0.6219638 -1.4049443 -0.21100813 -13.26363 -8.342926 -3.5309668
-4.196538 -16.74193 0.2691998 -9.748941 -12.25936 -0.87777704 -9.485214 14.784986
-5.2576137 -0.40500593 2.0206559 -9.956068 0.15727533 0.2966984 -14.951694 -0.83775514
-10.418667 -8.099438 0.53233445 -0.33088136 -4.6630816 -0.57259595 -8.21936 0.39276445
-1.478916 -11.782598 0.3568586 -1.0798799 0.05220184 0.1824607 -0.25347704 -0.014196732

fc2.weight f4 [64, 64]
00000000: 4fcd 783e a734 85bd 1c52 20bf 4e9e e83e
00000010: aa84 8b3d 68ae 493f 3ca7 debd 3938 0bc0
00000020: f7c1 9d3e de6c bcbf 35b5 45bf 8b36 b83d
00000030: e1e8 0b3e 94a4 ec3e b51b bd3d d21a 85bd
00000040: 4a1a 58bf 3bf0 73bd b166 aabf 2aab b5bd
00000050: c2bc 61bf fb2d 5fbf 56dd 9f3c adb7 d2be
00000060: a724 2ebf ad8b 2b3e 1131 3f3e fad4 4cbf
00000070: 6ca7 b03e 07b8 ddbf 97a9 88bd 7b02 fbbe
00000080: 1771 f4be 4e6a 163e b31f 5fbf 6780 6c3c
00000090: a19b 9e3c 8ae0 6ebe adfd 423e bf04 9bbf
000000a0: a485 093d daec bebf e99b 51bf 677b 43bf
000000b0: 3f1e a13c 4092 073f ea25 acbe 853f 17be
000000c0: 7489 3cbe f937 52bf 2669 48be 3375 e6bf
000000d0: 076f 1f3f c683 e33d 2c9c b03d 219b 83bf
000000e0: 7843 573d 1847 03bf ea49 13bf 0466 f9bd
000000f0: f88f 11be 4fde 76bd 6b8d abbe 8363 85bf
00000100: 888e c6be a125 abbf 7272 2dbf 1968 9b3e
00000110: bf21 8a3e d3e3 33bf 43f5 44bf ee37 eabd
00000120: 8f78 cf3d 2ab7 0ebf 7bf1 cbbd 1d68 9abe
00000130: d861 b1be 7dd1 97be 2498 6ebe 71ed d83c
00000140: e655 b4bf a5b5 a13d c59f 04c0 d5ba f5be
00000150: 297d 243f 5ef5 c73e 1f8b 47be bfa5 bdbd
00000160: 58e5 adbe 05a8 9a3e 63ec 9fbd 8864 9dbf
00000170: c838 c3be 5813 4e3d 0bec aebe 1972 11bf
00000180: a1e4 adbf cd90 df3e 175c 14be 6514 2cbf
00000190: 21ed 823e 272e 89bd f572 56bf 0304 90bf
000001a0: fa61 be3e d173 4bbe 8a95 99be f9c6 75be
000001b0: 91ae fa3e 98dd 9ebf 014a 75bf 7c83 a13c
000001c0: 4d90 433e 49b7 d23e 99ca 84bf 9baf e63d
000001d0: 6d36 02be 30d1 ddbe f01a 17bf cafa e6bd
000001e0: 8128 39bf 0174 553f 9bf0 a9bf 78cb cfbd
000001f0: 661b b2be 7aec 933c 4a8a cdbe 3ab1 97bf
00000200: b843 3ac0 e141 34c0 4a13 74bf fd9c 3ebf
00000210: 599c 203e a8c5 4ac0 7c68 a03f c1df cc3f
00000220: 48e2 a0bf b2e7 7fc0 4f37 75bf 3825 d53d
00000230: f7c1 a93e 35b4 3fbd dd5d 0d3c cc1e 60bf
00000240: 653f 9abf 6a6f b8bf 920c 53c0 9f9a 77bf
00000250: 4f6a 11c0 fcc3 9abf 3692 b6bf 1b1e 90c0
00000260: 6d33 2ec0 1474 c3bf 4d69 503f cf7c 60bf
00000270: 3e62 babe 27a1 853e 0873 60bf 25cc ddbf
00000280: d7f9 0e3f e9ef 74bf 1247 313f 6aa5 113d
00000290: ac30 553f 99a4 0bbf a742 60bc e144 29c0
000002a0: 8b22 b7bf 3df1 ca3e 98bd b03d 38c6 7dc0
000002b0: b0ce 1c3f 89b0 9bbd 2673 e3be cb05 37c0
000002c0: 88df 473e eb26 373f a08f 2fc0 5e34 a23e
000002d0: 0319 b1bf cb28 60bf afc7 19bf ac0e 0ebf
000002e0: 63ed 5fbf 3191 7dc0 2478 7ec0 5957 c73f
000002f0: 4b9b ddbf 0d98 5bbf 4831 453f 0aba 04bf
00000300: 7284 313d 461c 16be 161f 13bd 0ea1 6dbe
00000310: 0ab8 82be f5d9 1abf 65eb 1c3e f914 71bf
00000320: 269c d3be 3912 2dbf 8cb6 11be 5ecc e23d
00000330: 70fe efbe 395a 3bbe 9bb4 43be ff16 98be
00000340: f754 c1bd 2136 60bc 3a03 9a3c ff02 3ebe
00000350: 900d 0cbe 883c b3be 930f a93d 95b6 a83e
00000360: c42c 56bf ee84 19bf f59b 01be b54b 5ebf
00000370: 16b6 353e 8f71 e0bd 6f7d 34be bd1c 94be
00000380: 0d1e 53bf ff68 6abe 2394 143e 13a5 bdbe
00000390: 7e72 093b ab7a 1cbf 8cf0 41be 2954 80bf
000003a0: 4411 bc3d 02cf 4ebf 3dfe b33c 7625 a13e
000003b0: 5ea6 8abf 050e 0abf 1dc0 d4be 2e51 f9be
000003c0: 522c a8bd 0055 20bf f1da 82bf 242b 2d3e
000003d0: f979 11bf ffb6 57bf 07d9 5ebf 4629 83be
000003e0: 0f3c 193d 343d a7be f9e2 35bf 0db4 11bf
000003f0: 945f 43bf a063 433e e3e6 c23d c488 38bf
0.24297069 -0.06504183 -0.6262529 0.45433277 0.06812413 0.7878175 -0.10871741 -2.1753066
0.30812046 -1.4720724 -0.77229625 0.08994778 0.13663055 0.46219313 0.092338 -0.06499256
-0.84415114 -0.059555274 -1.3312589 -0.088705376 -0.88178647 -0.87179536 0.01951472 -0.41155759
-0.6802468 0.16752501 0.18671061 -0.80012476 0.34502733 -1.7321786 -0.06672972 -0.4902533
-0.4774253 0.1468899 -0.87157744 0.01443491 0.019361319 -0.23327842 0.19042082 -1.2110823
0.033574715 -1.4916031 -0.81878525 -0.7636017 0.019667743 0.52957535 -0.33622676 -0.14770325
-0.18411809 -0.8211666 -0.19571361 -1.8004516 0.6227879 0.11109118 0.086235374 -1.0281717
0.052554578 -0.51280355 -0.5753466 -0.12177661 -0.14215076 -0.060270604 -0.3350633 -1.0420994
-0.38780618 -1.3370858 -0.67752755 0.30352858 0.2697887 -0.7026951 -0.7693674 -0.11436449
0.101304166 -0.55748236 -0.09958168 -0.30157557 -0.3464496 -0.29652014 -0.23300225 0.026480408
-1.4088714 0.07895974 -2.0722516 -0.47994104 0.6425348 0.39054388 -0.19486664 -0.09260129
-0.33964038 0.30206314 -0.07808759 -1.2296305 -0.38129258 0.050311416 -0.34164461 -0.56814724
-1.3585397 0.43665162 -0.14488254 -0.6721862 0.2557154 -0.06698256 -0.8376916 -1.1251224
0.37184125 -0.19868399 -0.29996902 -0.24001683 0.4896131 -1.2411375 -0.95816046 0.019716017
0.19098015 0.4115546 -1.0374328 0.11263963 -0.12716074 -0.4332366 -0.5902548 -0.11278303
-0.7232743 0.8338013 -1.3276552 -0.101462305 -0.34786528 0.018057097 -0.4014457 -1.185096
-2.9103832 -2.816521 -0.9534193 -0.74458295 0.15684642 -3.168314 1.2531886 1.6005784
-1.2569056 -3.9985166 -0.9578752 0.104074895 0.33155796 -0.04680272 0.008628336 -0.8754699
-1.2050596 -1.4409001 -3.2976422 -0.9672031 -2.2721136 -1.209106 -1.426337 -4.503675
-2.7218888 -1.5269799 0.81410676 -0.8769044 -0.36403078 0.26099512 -0.87675524 -1.7327925
0.55849975 -0.95678574 0.6924907 0.03555814 0.8327739 -0.5454803 -0.013687766 -2.644829
-1.4307417 0.39637175 0.08629912 -3.9652233 0.6125288 -0.07602031 -0.4442379 -2.8597286
0.19518864 0.7154376 -2.7431412 0.31680578 -1.3835758 -0.87562245 -0.6007032 -0.5549114
-0.874716 -3.9619868 -3.9760828 1.5573531 -1.7313017 -0.85778886 0.7702832 -0.51846373
0.0433392 -0.14659223 -0.035918318 -0.23205969 -0.25531036 -0.60488826 0.15324171 -0.94172627
-0.4133007 -0.6760593 -0.14229792 0.11074136 -0.46873808 -0.18296136 -0.19111864 -0.29705045
-0.09440034 -0.01368478 0.018800367 -0.1855583 -0.13677049 -0.3500712 0.08254924 0.329518
-0.83662057 -0.5996846 -0.12657149 -0.8683427 0.17745242 -0.109591596 -0.17625974 -0.28928176
-0.8246773 -0.22891615 0.14509635 -0.37040004 0.0020972784 -0.61124676 -0.18939418 -1.0025684
0.09182981 -0.8078462 0.021971816 0.31473893 -1.0832021 -0.5392764 -0.4155282 -0.48694748
-0.082115784 -0.626297 -1.0223066 0.16910988 -0.5682674 -0.84263605 -0.8704991 -0.25617427
0.037410792 -0.32663882 -0.7104946 -0.5691536 -0.76317716 0.19080973 0.095166944 -0.7208369

fc2.bias f4 [64]
00000000: 389d 7340 c4b4 4dbf 2c11 0ebf b8f5 663f
00000010: e6cf 90bd 243b 3f3d d688 3c3f 2da6 4dc0
00000020: 6e98 803f ad8d 493d 5b1c 92bd fb34 2d40
00000030: 92b2 b0bf a171 28bc f21c 21bc 9826 aebf
00000040: 30e0 47bf a380 d63f 66ee 01c0 f844 5ebf
00000050: c558 9cbf b196 d1bf 47c1 26bf f799 783e
00000060: 7e7e 5c3f 3d6c 0ebf c05e 15c0 1459 17bf
00000070: 2776 29bf 1da1 9d40 eb7a e6be ee61 2c3e
00000080: 2556 8e3f b71e c1bf 1835 533e a0e2 4340
00000090: 5688 3040 d970 0f40 ca17 103f 58c9 3641
000000a0: cb5a 55bf 9150 9bbf 71ca dbbe 10a5 8bbf
000000b0: beea 693e 1aee 81c0 b7b2 1abe 34f6 77c0
000000c0: 9c54 51c0 5c2b 56c0 1372 9b3f 9204 9b3f
000000d0: 2cad e93e 21c9 d5bf 5a89 4740 e929 a03f
000000e0: dc25 c23c 0efd 8bbf 328d 0040 dd88 7840
000000f0: 97bb 34bf 2ce5 a33f e9bc 9dbf 842c 063e
3.8064709 -0.8035395 -0.5549495 0.9021869 -0.070709035 0.04668726 0.73646295 -3.2132676
1.0046518 0.04920738 -0.071343146 2.7063587 -1.3804495 -0.0102809975 -0.009833561 -1.3605528
-0.7807646 1.6758007 -2.0301757 -0.8682399 -1.221459 -1.6374112 -0.6513867 0.24277483
0.8613051 -0.5563391 -2.333908 -0.591203 -0.6619591 4.925917 -0.45015654 0.16834232
1.1120039 -1.5087498 0.20625722 3.060707 2.7583213 2.2412627 0.562863 11.424156
-0.83341664 -1.2133962 -0.42927888 -1.0909748 0.22843453 -4.060315 -0.15107237 -3.874402
-3.2707891 -3.3463964 1.2144188 1.211077 0.45639932 -1.6702005 3.1177583 1.251279
0.023699693 -1.0936601 2.0086179 3.8833535 -0.7059874 1.2804313 -1.2323276 0.13102919

fc3.weight f4 [64, 64]
00000000: 7257 92bf d9e0 7ebe 0ade a33f 9cbd 823f
00000010: 56a3 ea3e ff13 f93f 873e da3e 3be3 42bf
00000020: 16ea 67be fa26 debe 8195 86bf 9ed6 0140
00000030: c692 8d3f 0e1d c1be b2a7 edbe f16e 67bf
00000040: 5343 dcbf 26a2 e03e 9a0b 06bf eca4 593e
00000050: e0b1 38bf ba2a 18bf f07d 95be d716 e53f
00000060: 26f1 b23e cdfa 0440 5de5 d5bf de58 d7bf
00000070: 78bc 133f a4b2 003f 901d c63d 81a8 713f
00000080: 0742 a23f 29e6 be3b f323 3c3e 163c 88bf
00000090: 9db1 abbf caa6 bcbf 500a 26bf 3a43 8ebf
000000a0: e342 343d a9f6 713d 2811 f7be 2d10 d0bf
000000b0: c021 c6bf 0660 0b3e b72c fabe 44f0 2cbb
000000c0: d42d 1d3f 07d1 0fc0 5fdc 8abe 30be 653f
000000d0: 75dd 70bf 3072 a23e 4bb2 a03e 3673 c73f
000000e0: 8f67 0f40 b4f3 d5be 3ce6 59bf ff31 cd3c
000000f0: e3b5 a23f 32bb 0dbf d244 a53f bdfe 0ec0
00000100: c98f bb3d 67b5 92bd 8975 31bf 35fa d03f
00000110: d95d a53f 324f 5040 6b96 a03f 108b 073f
00000120: cd3c 7bbf b51e 1d3f 571d febf 47ba 6ebe
00000130: 845a 7cbf 3407 a73f 6941 61c0 3e50 b1bf
00000140: 3e2f c43e ba67 c8bf 8154 10c0 8a8c d0be
00000150: e51d 96bf 4bf1 18bf 6d59 26c0 522c 6d3f
00000160: 69b2 35c0 c393 cc3e 39fd 3cbf fae7 f0bf
00000170: 8564 3640 f705 a6bf 1437 5e3f 5525 41c0
00000180: 3b9f 1740 3ea6 b5bd 6b9b fc3f 38d8 efbf
00000190: b820 79c0 e0c2 4c3f 97da d8bf e2e8 05c0
000001a0: 87f9 dc3f f490 a5bf e2a5 cfbf 253f 3f3d
000001b0: ee7a f93f 19bd b43e 3741 a8be c96e a23e
000001c0: e6cc acbf c425 7bbf 03dd 0c3e 5a77 cd3e
000001d0: 706e 68bf 0272 3f3f 181b d2bf 1171 d53d
000001e0: 614e 08be 53ee 89bf 0509 b0be 05ae 523e
000001f0: 9ad1 e13f b260 e13f 5786 25bf f33a a1bf
00000200: 8cd5 a1c0 6525 ff3e 9d58 893f 7c8f 4e40
00000210: 2203 0940 bbfe a0bf b966 f1bf e40b e83f
00000220: 9a09 aebf 19e5 35bf 9955 28be aa31 913f
00000230: 3ccc 073f f1b6 923f 7325 5a3f ac28 b63c
00000240: 1b73 213f 8dd0 e93d 01d2 2a3f 672a 5f3f
00000250: 00ce b7be d375 3d3d 53ad a13f f98f 3e3f
00000260: 0c8f ae3d a1af 29bf 4250 1c3e 6d8a 843f
00000270: 5610 883f e6f0 203f 4fe8 a73e 96a2 87bf
00000280: 4e3c 3640 23af 03c0 c8d0 8d3f 60e2 d23f
00000290: 3d48 d4bf dcbc dfbd f67c b0bd 14c2 29bf
000002a0: 3e60 b73f bc86 7c3f 1fcc 743f 23f1 c33e
000002b0: 4d16 bd3f 938f 81be 1bae 58bf 3b14 823d
000002c0: 1758 6f3d b25d b33d 72f2 983d 8b71 1dc0
000002d0: 435f 9abe 70e4 873f ec86 a83f fa79 dd3f
000002e0: d332 60be 4a0d c33e 4f64 2b3e 1d3a c0bf
000002f0: 51d2 96bf 0d8c 123f 31d1 af3e 0d3d 0840
00000300: 7672 adbf 4f8f 93be 7822 a7be 3a39 233f
00000310: c936 0540 b71f 72be 7840 c9bf 6e82 fc3f
00000320: 8311 a9be 9bbc 06be c6d5 a23f ad36 623f
00000330: 3477 1040 91f9 e13e 8144 2d3f d4da acc0
00000340: ab02 cfbf abf8 41bf 326b 33be d8a7 96bf
00000350: 1bfd 373e 7855 5d3f 6cca dd3f 4a38 363f
00000360: 0916 0dc0 3f25 803e 278f 843f ee6a 2b40
00000370: d845 00c0 a5cf cebf fa8b 393f cd40 1640
00000380: 01c4 793f dd2c 0dc0 1f70 99be f228 c7bf
00000390: 2888 633f 3baf cdbe 6edb 40bf 9e55 a1bf
000003a0: 1c0b 86be 5a3f 4940 b8a1 293c ed05 dfbe
000003b0: dbfd c9bf 40ce 5f3f de8f 2dbf d6f7 dcbe
000003c0: 862c c63f 129c 6ebe 74c1 8f3f 6b58 41c0
000003d0: ef6c 233d 88e2 44c0 17b6 ed3f 24b3 e7be
000003e0: 7ea5 82c0 72d7 89be 38da bfbf 2fd7 5ec0
000003f0: 40ec d3be ad0a 95bf 087a 62bf b9e6 18be
-1.1432936 -0.2489046 1.2802136 1.0214114 0.4582774 1.9459227 0.4262583 -0.76127976
-0.2264789 -0.43389112 -1.0514375 2.0287242 1.1060417 -0.3771748 -0.46417004 -0.9040366
-1.7208046 0.4387371 -0.5236145 0.21254319 -0.72146416 -0.59440196 -0.29197645 1.7897595
0.34949607 2.0778077 -1.6710621 -1.6823995 0.57709455 0.50272584 0.09673607 0.9439774
1.26764 0.005825777 0.18373089 -1.0643337 -1.3413578 -1.47384 -0.64859486 -1.1114266
0.0440091 0.059073124 -0.48255277 -1.6254936 -1.547905 0.13610849 -0.4886224 -0.0026388327
0.61398053 -2.247133 -0.27121255 0.8974333 -0.94087917 0.31727743 0.31386027 1.5582035
2.2406957 -0.41787493 -0.85116935 0.025048254 1.2711757 -0.5536376 1.2911627 -2.234298
0.09158284 -0.07163506 -0.6931997 1.6326357 1.2919265 3.2548337 1.2545904 0.5294657
-0.9813965 0.6137498 -1.9852704 -0.23313247 -0.98575616 1.3049073 -3.5196173 -1.3852613
0.38317293 -1.5656655 -2.2551577 -0.40732223 -1.1727873 -0.59743184 -2.599208 0.9264575
-2.8390143 0.39956483 -0.7382389 -1.8820794 2.8498852 -1.297057 0.8680279 -3.0179036
2.3690937 -0.08869599 1.973493 -1.873786 -3.892622 0.79984856 -1.6941708 -2.092339
1.726365 -1.2934861 -1.6222498 0.04669108 1.949064 0.3530052 -0.32862255 0.31725147
-1.350003 -0.981045 0.13756184 0.4013012 -0.90793514 0.7478334 -1.6414518 0.10421956
-0.13311149 -1.0775856 -0.3438188 0.20574196 1.764209 1.7607634 -0.6465811 -1.2596115
-5.0573177 0.49833217 1.0730168 3.2275076 2.1408162 -1.2577738 -1.8859473 1.8128629
-1.359668 -0.710527 -0.16438903 1.1343281 0.5304601 1.1462079 0.8521339 0.02223619
0.6306626 0.11416731 0.6672669 0.87174076 -0.35899353 0.046254944 1.2631019 0.74438435
0.08523378 -0.66283613 0.15264991 1.0354744 1.0629985 0.6286758 0.32794425 -1.0596492
2.8474307 -2.0575645 1.107934 1.6475334 -1.6584545 -0.10924694 -0.086175844 -0.66311765
1.4326246 0.9864309 0.95623964 0.3826991 1.4772431 -0.2530485 -0.84640664 0.06351515
0.05843362 0.08758105 0.07468118 -2.460055 -0.30150804 1.0616589 1.3166175 1.7302849
-0.21894388 0.38096076 0.16737483 -1.5017735 -1.1782933 0.5724495 0.34339288 2.1287262
-1.3550556 -0.28820273 -0.32643485 0.63759196 2.0814688 -0.23644911 -1.5722799 1.9727304
-0.33021173 -0.13157885 1.2721488 0.8836468 2.2572756 0.44135717 0.67682654 -5.4017124
-1.6172689 -0.7577006 -0.1752136 -1.1769972 0.17967646 0.8645854 1.7327399 0.7117964
-2.20447 0.25028417 1.0356187 2.6784015 -2.004263 -1.6157118 0.7247921 2.3477051
0.97564703 -2.2058632 -0.29968354 -1.555937 0.8887963 -0.40172753 -0.75334823 -1.2604253
-0.2618035 3.1444917 0.010353498 -0.4355921 -1.5780596 0.8742409 -0.6779765 -0.43157834
1.5482337 -0.23301724 1.1230912 -3.0210216 0.03989881 -3.0763264 1.8571194 -0.4525386
-4.0827017 -0.26922184 -1.498847 -3.4818838 -0.41391182 -1.1643883 -0.88467455 -0.14931764

fc3.bias f4 [64]
00000000: fd8d 00c1 eb86 e940 b29e 24c1 d5cf ce3f
00000010: 5d8b e2bf 72ae 17be dcbe 5d41 7adc ee40
00000020: 43b5 1bc1 f5b5 f440 75fd 92c0 3126 d0c0
00000030: 5131 fdc0 a95c 4440 e836 9a3f 00cd 26c1
00000040: 394d 14c1 b029 0f41 60c4 ee3f f587 6641
00000050: 7f3e f6c0 7b34 e4c0 de56 94bf bf5f 23c1
00000060: cde5 b540 60ab 8fc0 85b3 a53f f7de 51c0
00000070: af15 9cbf 6804 8cc0 d0bf 16c1 81ea a2c0
00000080: 0e63 d640 5b89 9b3f 3d7d d6be ca5e 8fc0
00000090: c390 2cc1 6a73 1dc1 7bed 5d41 42e5 2940
000000a0: 81e4 0841 fbac 1ac1 d648 7fc0 44c3 91c0
000000b0: 5f48 36bf 84d5 3c41 571f 28c1 6bbe a53f
000000c0: 410d 603f 49bb 07c1 b35e cbc0 5cd3 3ac0
000000d0: 28f2 1dc0 9634 08c0 3972 5640 29d1 12c1
000000e0: dbf1 2e40 0ad0 8fc0 587d f63f 9191 b4bf
000000f0: a2a3 2240 c602 1b3f b4d7 3ac0 207e 92be
-8.034665 7.2977195 -10.288744 1.6157175 -1.769878 -0.1481264 13.859097 7.4644136
-9.731753 7.6472116 -4.5934396 -6.504662 -7.91227 3.0681555 1.2048006 -10.425049
-9.268853 8.947678 1.8653679 14.408193 -7.695129 -7.1314063 -1.158901 -10.2108755
5.684302 -4.48967 1.294541 -3.2792337 -1.2194117 -4.375538 -9.421829 -5.091126
6.6995916 1.2151293 -0.41892424 -4.480321 -10.785342 -9.840677 13.870479 2.6546178
8.555787 -9.667232 -3.9888206 -4.555086 -0.7120418 11.802128 -10.507651 1.2948736
0.87520224 -8.483224 -6.35531 -2.9191504 -2.467905 -2.1282096 3.3507216 -9.1760645
2.7335117 -4.4941454 1.9257002 -1.4106923 2.5412374 0.60551107 -2.9194155 -0.2861185

q_out.weight f4 [1, 64]
00000000: 2a4a 9ebe 4111 793f 21e6 6ebe 27fe 1c3e
00000010: 3215 f53d 1e14 3ebe b903 0640 e78e 3b40
00000020: c2fa 20be 0014 ab3e 7273 ffbe 01d2 6c3e
00000030: acb1 92be fb54 2c3f 3512 213f f84b 7fbe
00000040: 772b 11bf c42d d43f 38ae a43e e813 073f
00000050: 3f31 b0be 0830 ccbe 7d7f 96be 3205 75be
00000060: ceff 093f cc8c 5c3e 9849 ae3c c5c7 363f
00000070: 2005 8a3f 414a 8a3f dcf3 4ebe a377 f5bd
00000080: ec1c a13e e315 573e 5340 9c3e 2c53 c4be
00000090: 5b69 2cbe c2a0 66bf 6d25 0a40 324b 423e
000000a0: 0cea 1140 19bf 7fbf 5b94 e53e 9764 5dbf
000000b0: 02da 153d e714 a63e 0532 5ebe fa58 643e
000000c0: 80f6 3f40 4523 23bf 2d78 1bbf 7bc4 83bd
000000d0: fbcf e83e e511 47be da6b e9bf 0ae5 27bf
000000e0: e2d2 0cbf 78b8 8c3e 5335 8c3f 8395 92be
000000f0: f1be 563f 470f ed3e 31a2 84be efd6 983c
-0.30915958 0.9729195 -0.23329975 0.15331326 0.11966933 -0.18562362 2.0939772 2.930597
-0.15720657 0.33413696 -0.49892765 0.23126985 -0.28651178 0.6731717 0.62918407 -0.24931324
-0.5670695 1.6576467 0.32164168 0.5276475 -0.34412572 -0.39880395 -0.2939414 -0.23927763
0.5390595 0.21538085 0.021275327 0.71398574 1.0782814 1.080391 -0.20210212 -0.119857095
0.31467378 0.21004443 0.30517825 -0.38344705 -0.16837065 -0.90089047 2.1585343 0.18973997
2.27991 -0.99900967 0.4483975 -0.8648161 0.03658486 0.32437822 -0.21698768 0.22299567
2.9994202 -0.6372569 -0.6073025 -0.0643396 0.45471177 -0.1944042 -1.8236039 -0.6558386
-0.5500928 0.27484488 1.0953773 -0.28629693 0.83885103 0.46300718 -0.25904992 0.018657176
