model/simple_tag/agent_2/actor_params.pkl (torch_old, 40203 bytes, 8 tensors)

fc1.weight f4 [64, 16]
00000000: 11d7 bebe 6e5a 1cbf 1c8a 573e b352 323f
00000010: 9be9 28be ad5c 8a3f 04da cc3e c125 f9be
00000020: 1802 ea3f 2160 0140 887c 713f 2c50 f03d
00000030: cec8 af3f 2192 0040 7944 b93d 634d a93d
00000040: fbc8 793e 9970 b7be 7416 bfbe e7cb d93d
00000050: d215 1b3f 3e38 203f 5f17 b0bf cc75 63be
00000060: f55a a23e d29a 1240 cfd5 453e 91f4 393f
00000070: 19c7 243e 1b1f ad3f 73ea 003f e43a 0bbe
00000080: 717e 213e 69d1 753e dcdb 24bf 031b 0d3e
00000090: 132a debe 2d08 903d c666 5ebe 9deb 8a3d
000000a0: 0d50 693f e26b dc3e d6dc 10bc 6562 303e
000000b0: 2948 2fc0 cdfa 1ec0 8efc 20bc 341d f5bd
000000c0: 13c2 8d3e 888e e8be 3b34 04be 7485 c53e
000000d0: be37 bf3e a8a4 913e 975f d8be 72e0 bf3c
000000e0: 4435 1640 ae0b c0be 1e3b a43f e29e 69be
000000f0: 279e 18bf 6f91 b53f aae3 15bf f6a5 283e
00000100: 8b62 243e 732b 6939 885d f0bd ec36 473c
00000110: 6c7a 6bbd cf42 c0bb 962f 79bd a782 c83c
00000120: d4ec 763f e839 a43e 7fa9 17c0 d5fc 48c0
00000130: ae94 af3f a443 9d3f f4b6 0ebe 45ba adba
00000140: 937f 6f3e 0dce a13d 9def c03e cc38 713e
00000150: eecb 243e d522 ff3d cb75 443e e834 c23d
00000160: fe67 95c0 de54 3d40 70bb 153e aa6d 2e3f
00000170: cfa6 94bf 8f65 b53e af16 b43e b173 80bf
00000180: d057 653e 85d6 c03d 91a6 743f 2d09 3d3f
00000190: 6b66 253f b1b4 513e 60f6 8e3e 9e48 eb3e
000001a0: ffce 37be 57f0 5e3f 7799 eb3d ea73 543e
000001b0: 9366 73be a2ee 45c0 8c80 3ebe f75d 003f
000001c0: ab1a 963d a3ee 7d3e 96f6 c73d 67af 25bf
000001d0: 8fc0 9f3e 5321 16bf 2654 87be 178d 15bd
000001e0: c9d8 8d3e 5f87 eb3b c21f 3fbd 696f 39bf
000001f0: 85ef d73f a78e 66c0 83b7 14be b02e b4be
00000200: 8edf 3fbf 291b a13e ca76 f2bd 8396 143f
00000210: 9b8d 6ebd f6d5 c9be eb8c 3abc 17a1 4d3f
00000220: 004c 933e 84c6 92bf 3cc5 ad3e f841 dabf
00000230: 18b1 373f 20c0 20c0 aa9b ad3f a020 b1bd
00000240: c698 5bbd add1 9abd 58b5 98be 8bc0 133f
00000250: 9ddc 63bf a5e8 07be 3416 253f 5d82 333f
00000260: 3ec6 b53d 370a 92bf a85c 48bf e400 533f
00000270: 2902 cdbf 6317 0840 d9d1 133e 90f0 e4be
00000280: 6d6a 443d aa4d 8b3e 7522 293f 4b6e a53d
00000290: 797f 463f 914a 22bf d85d cebd 78ec 233f
000002a0: 6067 8abe 09c3 f13f e841 21bf 99c0 1d3f
000002b0: 8776 0b40 197b 5a40 d979 13bf 116f da3e
000002c0: 9ff9 a63e 0c16 783d 1a67 ce3e c55e 843e
000002d0: 8167 9f3d 90b3 ea3d 7c26 a53e a6eb dc3d
000002e0: 920c f6bf e7fe 75bf 5466 c8bf 9f9a 91bf
000002f0: c3af 0240 d53e 3840 ebd8 4e3e 44b9 463e
00000300: 2f30 f1bd 4228 5abc 9b4e a23e a9a8 14bf
00000310: 1968 f5bc 3518 1f3c 5071 c03e 9ae5 09bf
00000320: 09aa 89be a1ed d63e 3c34 913f 30a8 b2bf
00000330: b462 9abf d869 e1bf 276e 48bf 75f7 1fbd
00000340: 5dc3 de3d 66c3 bc3c d306 873c 1696 87bd
00000350: 5b8c ad3e 6faa 4cbf 6deb 94be 3c53 3b3f
00000360: ffa9 ccbf f580 88bf 0d3a 94bf 2cbc 68bf
00000370: d6f5 d6bf 4a1c c93f 923e 593e b696 c43d
00000380: 012e 9f3e acdd 2f3f fe1a 4c3f 4185 343e
00000390: dd33 43be f908 efbd 028d 6a3f ed78 593e
000003a0: 3682 82bf b970 4c3e 28b0 9cbf 3c42 303f
000003b0: 7c74 d5bf f32b cbbe a1ea 863d 4544 fbbe
000003c0: dcea 55bf 2c02 4fbc 3214 69bd 5d77 eebe
000003d0: 9993 2ebf 89a1 043e 6348 2f3f 253e 0cbf
000003e0: 28b5 3d3c 5bc2 3e3e 126e d63e bbb9 c53f
000003f0: 567b 0fc0 37ad e73f d9eb 36bf 7d0f 323e
-0.37273458 -0.61075485 0.21048778 0.6965744 -0.16495363 1.0809532 0.40010083 -0.48661616
1.8281889 2.0214922 0.94330645 0.117340416 1.3733156 2.008919 0.09046263 0.082667135
0.24393074 -0.35828093 -0.37321818 0.106345944 0.6058017 0.6258582 -1.3757132 -0.22212905
0.3171002 2.2906995 0.19319843 0.72638804 0.16091575 1.3525118 0.5035774 -0.13596684
0.1577089 0.24005665 -0.6439798 0.13779835 -0.43391475 0.070328094 -0.21718892 0.06783221
0.9113777 0.43051058 -0.008841714 0.17225035 -2.7387793 -2.4840577 -0.009825839 -0.11968461
0.2768713 -0.45421243 -0.1291055 0.3857838 0.37347215 0.28445935 -0.4226043 0.023422454
2.347001 -0.3750891 1.2830541 -0.22814515 -0.5961632 1.4185008 -0.5855051 0.16469559
0.16053216 0.00022236798 -0.1173659 0.0121590905 -0.057489797 -0.005867339 -0.060836397 0.024476362
0.9645512 0.3207543 -2.3697202 -3.1404316 1.3717248 1.2286267 -0.13936979 -0.0013254365
0.2338851 0.07900629 0.3768281 0.23556823 0.16093418 0.124578156 0.1918556 0.09482747
-4.6689444 2.958305 0.14622283 0.68136084 -1.1613406 0.35429046 0.35173556 -1.0035306
0.22396779 0.09415916 0.9556666 0.73842126 0.646094 0.20479085 0.27922344 0.4595384
-0.17950056 0.8708548 0.115038805 0.20747343 -0.23769598 -3.09269 -0.18603724 0.5014338
0.07329305 0.24798064 0.097638294 -0.6472077 0.31201598 -0.586446 -0.26431388 -0.036511507
0.27704456 0.0071877684 -0.046661146 -0.72435623 1.686997 -3.6024568 -0.14523129 -0.3519187
-0.7495049 0.31466034 -0.118390635 0.5804216 -0.058240514 -0.39421052 -0.0113861365 0.8032393
0.2876892 -1.1466832 0.3393954 -1.7051382 0.717546 -2.5117264 1.356313 -0.08648801
-0.053612493 -0.07559524 -0.29825854 0.5771567 -0.89008504 -0.1327234 0.64487004 0.70120794
0.08875702 -1.1409367 -0.7826638 0.82423234 -1.6016284 2.1264274 0.1443552 -0.44714785
0.047953058 0.2720769 0.660682 0.08077677 0.7753826 -0.6339503 -0.10076493 0.640327
-0.27031994 1.8887645 -0.6299119 0.61622006 2.1791093 3.4137633 -0.576078 0.42662862
0.3261232 0.0605679 0.40313035 0.25853553 0.07783414 0.1146003 0.32255924 0.10787134
-1.9222586 -0.96092075 -1.5656228 -1.1375312 2.0419776 2.878835 0.20199935 0.1940661
-0.117767684 -0.013315262 0.31700596 -0.58069855 -0.029956864 0.009710361 0.3758645 -0.5386597
-0.2688754 0.4197817 1.1344066 -1.3957577 -1.2061372 -1.7610426 -0.7829308 -0.039054353
0.10877106 0.023042392 0.016482746 -0.066204235 0.33896145 -0.7994756 -0.29085866 0.7317388
-1.5989379 -1.0664355 -1.1580216 -0.9091213 -1.6793773 1.5711758 0.21215275 0.09599058
0.31089786 0.6869762 0.79728687 0.17628957 -0.19062753 -0.11671633 0.9162141 0.21237536
-1.0195987 0.19964875 -1.2241259 0.68851066 -1.6676173 -0.39681968 0.06587721 -0.49075523
-0.8356149 -0.012634795 -0.056904025 -0.46575442 -0.68193966 0.12952246 0.6846983 -0.54782325
0.011578836 0.18628828 0.41880852 1.5447305 -2.2419028 1.8099736 -0.71453625 0.17388721

fc1.bias f4 [64]
00000000: 6fe7 69bf cbb1 34bf d122 853f aad5 4a3f
00000010: 9a95 3f3e 8a24 b03d cf0a 6c3f a26e 9d3f
00000020: f5fa 86bd 5efd 823f f3c9 613f f86e 1a3f
00000030: 9b69 a2be 4d36 073f fcb7 d6bf 721e d23e
00000040: 5079 ae3f e0f8 b2bc 9495 5cbf c1a1 a53f
00000050: 21bf 113f f3ce 0a3e 2d52 ebbe fddd 9d3e
00000060: a543 0d3e bb45 39bd ebfe fc3e aa23 b23f
00000070: 82f1 c93f 8a52 a3bd c201 c03f 592f c03f
00000080: 3e9f ffbd 1d93 52bf cfe5 fe3d b5b8 80be
00000090: 2672 853f 54f4 e5bf 3f00 be3e 52e0 c23f
000000a0: e9a8 5c3f 4076 68bc a499 593f e34f cdbe
000000b0: 47ab f3be 0ead 09bf dfd8 f8be 5550 803f
000000c0: dcee 673f 840f 2fbe 4abe b33f fd30 be3f
000000d0: 9637 b63f d34c a93d 0255 22bf 1151 833f
000000e0: 5ba6 5e3f 0b30 be3d 66c6 c63f 1cd3 8e3f
000000f0: b2d2 b23f abf9 01be 3806 09bf 30a6 2dbf
-0.91368765 -0.7058379 1.040125 0.79232275 0.18709412 0.08600719 0.9220399 1.2299387
-0.06590835 1.0233572 0.88198775 0.60325575 -0.31721196 0.5281723 -1.6774898 0.41038853
1.3630772 -0.021847188 -0.8616574 1.2939988 0.56932265 0.13555507 -0.45961133 0.30833426
0.13795336 -0.045232516 0.49413237 1.3917134 1.5776827 -0.079747275 1.5000536 1.5014449
-0.12481545 -0.8225573 0.12446176 -0.2514092 1.042546 -1.7965188 0.37109563 1.5224707
0.86195236 -0.014188349 0.8500006 -0.4010001 -0.47591612 -0.53779685 -0.4860296 1.0024515
0.90598845 -0.17095762 1.4042447 1.48587 1.4235713 0.08266606 -0.6341096 1.0259115
0.8697259 0.09286507 1.5529296 1.1158175 1.3970549 -0.12692897 -0.53525114 -0.67831707

fc2.weight f4 [64, 64]
00000000: a0ff 023f 6f2b 87be efcb 323f 8845 56bf
00000010: a235 1e3e 22fc 42bf 73b3 a6bb fbe8 b3bf
00000020: cc30 573d b39f 023f 8516 0dc0 7bb0 65be
00000030: a5df 123f a257 cc3d e9c3 e93e d077 9ebe
00000040: 1d95 b2bf b352 5fbf 653c 68be af8f e7bf
00000050: 3133 83bf 1de2 20bf 16c6 24bf 1f42 59bf
00000060: 1a7c 8abf 1c0c 033e 0a35 063e dae0 c4be
00000070: 3d8d 143f 41f8 c13e 38c4 67bf f942 81bf
00000080: 0bf3 a0be 0afd 2b3f 1446 dfbe bdd5 1c3d
00000090: e739 44be 6931 05be 44a5 aebe 8fc1 21bf
000000a0: e185 8e3f e89e 6e3e 7785 59bf 3374 db3e
000000b0: 9ee3 963c 561f 30bc f753 b13d 78e6 8dbf
000000c0: 06fc 643e 89a8 d33d 2ed6 0ebf 301b 0ebf
000000d0: c6dc f5be 9396 b73c 2453 483e 0e41 fd3d
000000e0: 9035 1b3f 0dbe 133f fdb9 5fbd 8556 b4be
000000f0: c713 93bf 0cbb 503f 3687 cfbe 9020 4f3d
00000100: 12cc f9be fd6f 9ebf 386a 35be 5017 bd3e
00000110: 9d7c bebe f885 5f3f a841 ad3d ff65 79bf
00000120: 44d0 3d3e f037 253d 27eb 8f3e bb08 053f
00000130: cc6c 813e 648d 25be fa9d 1b3e c363 5a3f
00000140: b63c 18bf fd20 ed3e efe2 44be ff4e 7bbe
00000150: 5581 29bd 1449 20bf 92b7 0d3f bcca 663e
00000160: bf3e f73e a648 a0bd 7fe5 a23f 1778 a63e
00000170: 4b32 a23e 9155 fdbe f33c 453f d08b 07be
00000180: ca01 c9bf 727e 37bf 5ad9 5a3f 4fa1 b83e
00000190: 571c e6be ee94 433f 82b6 a6be 81d9 463f
000001a0: 335d 973f f1c6 d93c 91da 1fbf 67d7 013f
000001b0: 36a5 f03d 9057 b63d 7472 cb3e fa5a eabe
000001c0: a83a 28bf 5753 90bf 7256 9d3f baa7 5a3e
000001d0: 0254 543f 465d 04bf d969 10be a214 103f
000001e0: c4f3 e53e bbe6 b93e 8470 b7bf 5ba5 47be
000001f0: 6941 60bc 7569 87bf a712 ca3d 8eb5 26bf
00000200: 18e5 3cbd 103a 7a3d b5c7 61be f440 813e
00000210: 6f67 c13e d4cf e0be 17b7 a43e a787 85bf
00000220: 2cbf f6bc 24a5 593f 24ff 143f 24dc 423f
00000230: 6900 b0be 10bb 9c3f b5e1 263f 8483 8a3f
00000240: af19 763f 1770 a13d fbe9 bc3d 686a 273e
00000250: 4645 4a3e 931b 5cbf b8ec c03d 68bd 5ebf
00000260: 503d bdbe 3296 a9be 956c ba3f 85ca 733f
00000270: e085 c93d 6b64 823e 1cc0 b43e 7602 5fbf
00000280: 291a 9b3e e404 2a3e 58fa ecbe 64e5 5fbf
00000290: 5a30 6cbf f4d2 833f 0039 e2bd 6462 9a3f
000002a0: de2c 9ebe f9a7 2f3e dbb3 85bf 5ba5 563f
000002b0: 4240 c93e 06ca 43be ac17 2fbe 3fe8 bd3e
000002c0: 8ba7 f1be 9997 fbbe d658 bcbc dade da3f
000002d0: f74e d0be 4b1f 1dbc 9ea3 a23d 596f 8f3f
000002e0: 3664 97bd 9503 253e 4019 95bd 4af4 a33f
000002f0: 2fe2 ed3e 8fcf a33e 27b1 6ebe f3a1 a03e
00000300: 554b f9be cf7c 62be 3f84 19bf 909d 3dbe
00000310: 508e aebe 73a6 8a3f ae8e de3e d411 7e3e
00000320: b6b0 5c3d 4f75 5cbe a090 223e 2647 5c3f
00000330: 67e3 2a3f 67fe 4e3e 6728 073f bc42 48bd
00000340: 8662 b53e 9044 83bf 578a 35bf 74a9 17bf
00000350: e0f3 d43d 809b bebd b9ff 8d3e e02e 0e3f
00000360: 13f5 6d3e ab8d 71bc 9fe6 25be 3ab2 c6bd
00000370: 97a6 e63e 8d4c 2d3d 1a14 433e 173c 37bf
00000380: 13aa 983e 3b13 503e 5abf ff3e 3198 7a3e
00000390: 462c 2cbf 4227 743f c40b aa3e 3a0f 823f
000003a0: 9523 503f 1ff6 923c a4cf 3abf 4e12 30be
000003b0: 7084 a73c c8ca 4abf de0b d83d 707a 253f
000003c0: 90ed 1bbf e52a 4fbf f47d 233f 28bc d1be
000003d0: 4452 6c3f dcab 353f 637c 753f eb8d 983f
000003e0: f2c3 4fbe 4b79 fabe f919 063f c5e0 073f
000003f0: e7ef 14bf e622 5e3e 493c 02bf 5b58 d3bf
0.511713 -0.26400325 0.6984243 -0.83699846 0.15450147 -0.76165974 -0.00508731 -1.4055475
0.05253677 0.5102493 -2.2044995 -0.22430603 0.57372504 0.09977652 0.4565728 -0.30950785
-1.3951756 -0.87235564 -0.22679289 -1.8090724 -1.0249997 -0.6284502 -0.64364755 -0.8486652
-1.0819123 0.12797588 0.1310617 -0.38452798 0.5802801 0.37884715 -0.9053378 -1.0098563
-0.31435427 0.6718298 -0.43608153 0.038289774 -0.19162713 -0.1300713 -0.34110463 -0.6318597
1.1134607 0.23302805 -0.84969276 0.4286209 0.018419083 -0.010749659 0.08658593 -1.1085958
0.22361764 0.1033488 -0.5579556 -0.55510235 -0.4802 0.022410667 0.19562966 0.12365924
0.60628605 0.5771187 -0.05462073 -0.3522226 -1.149041 0.8153541 -0.40532845 0.050568163
-0.48788506 -1.2377926 -0.177163 0.3693185 -0.37204447 0.87313795 0.084597886 -0.9742126
0.18536478 0.04033655 0.28109095 0.51966447 0.25278318 -0.16167217 0.15196982 0.85308474
-0.5946764 0.4631423 -0.19227193 -0.24541853 -0.041383106 -0.6261151 0.5535823 0.22538275
0.4829006 -0.078263566 1.2726287 0.32513496 0.31678995 -0.49479344 0.77046126 -0.13236928
-1.5703671 -0.71677315 0.854879 0.3606057 -0.44943497 0.76399124 -0.32561117 0.77675635
1.1825317 0.02658412 -0.6244288 0.507193 0.117502615 0.0890342 0.39735758 -0.45772535
-0.657145 -1.1275433 1.2292006 0.21353045 0.82940686 -0.51704824 -0.14102878 0.56281483
0.4491254 0.36308846 -1.4331212 -0.19496672 -0.01368747 -1.0579058 0.09866839 -0.6512078
-0.04611692 0.06109053 -0.22048838 0.25244868 0.37774226 -0.4390856 0.32170936 -1.0432023
-0.030120455 0.8501761 0.58201814 0.7611716 -0.34375313 1.2244587 0.6518815 1.0821385
0.9613294 0.078827076 0.09224316 0.16349185 0.19752988 -0.85979575 0.094201505 -0.8700776
-0.3696084 -0.33122402 1.4564387 0.95230895 0.09839988 0.25467238 0.35302818 -0.8711313
0.30293396 0.16603428 -0.46284747 -0.874594 -0.9226128 1.0298753 -0.11046028 1.2061276
-0.30893606 0.1715392 -1.0445513 0.8384606 0.39306837 -0.19120035 -0.17098874 0.37091252
-0.47198138 -0.49139097 -0.022991579 1.7099259 -0.40685245 -0.00958998 0.07941364 1.1205856
-0.073921606 0.16114648 -0.07280207 1.2808926 0.46461627 0.31994292 -0.23309766 0.31373557
-0.48690286 -0.22117923 -0.59967417 -0.18517137 -0.3409295 1.0832046 0.4346823 0.24811488
0.053879462 -0.21529125 0.15875483 0.86046064 0.6675324 0.20214234 0.52796024 -0.048891768
0.3542673 -1.0255299 -0.70914215 -0.5924294 0.10398078 -0.09307003 0.27734163 0.55540276
0.2323802 -0.014743249 -0.16201256 -0.09701963 0.45048973 0.042309333 0.19050637 -0.71576065
0.29817256 0.20319836 0.49950677 0.24472119 -0.67255056 0.953724 0.332121 1.0160897
0.81304294 0.017939625 -0.72973084 -0.17194483 0.020448893 -0.7921567 0.105491385 0.6463995
-0.60909367 -0.80924827 0.63864064 -0.40963864 0.9231303 0.7096536 0.95892924 1.191831
-0.20289591 -0.48920664 0.5238338 0.53077346 -0.5817856 0.21693 -0.5087324 -1.6511339

fc2.bias f4 [64]
00000000: b73f 10bf 9e46 1e3e 0b08 8c3f c8c7 433e
00000010: b9aa 06bf a98a 393e 1def 8abe 0efe be3e
00000020: 2317 a43e 1a01 4c3f 36bf 3ebf 9df9 15bf
00000030: b1aa ac3e f6d9 62bc 8dae f83e e42f 11be
00000040: 66f6 9dbe 7844 e43d da17 0fbe f237 363d
00000050: 0a82 0cbd 05ce 123e a420 313f fb79 793d
00000060: 19c4 bcbe 7eed d83d 745b 033f 036c e73e
00000070: b624 74be dd8c 06bf 010c 713f 20c1 90bf
00000080: 047c 183f 16ae b6bd 48c2 ca3e 1806 cabe
00000090: 7520 bbbe e63c 363f 0b89 2c3f 5613 60be
000000a0: 0999 023f b713 86be a576 f63e 9b68 e13d
000000b0: b96e c5be 01c6 f2bd e130 a4be 55d4 073f
000000c0: fc04 25bf 280f 63bd ba24 7f3e d940 6ebd
000000d0: 96c8 27be 9a99 f0be 4d12 933e 90b7 1abe
000000e0: 0ab3 1ebf 5331 9cbe 31ef 43be 242e f4be
000000f0: 13d6 9e3e b48e 9c3e e973 90bd 9b3a 2abe
-0.5634722 0.15456626 1.0939955 0.19119179 -0.5260425 0.18119301 -0.27135554 0.37303203
0.32048902 0.7968918 -0.74510515 -0.58584005 0.33723977 -0.013845911 0.48570672 -0.14178425
-0.3085205 0.11145872 -0.13973942 0.044486947 -0.034303702 0.14336403 0.6919043 0.060907345
-0.3686836 0.10592173 0.5131142 0.45199594 -0.23842129 -0.5255869 0.9415894 -1.1308937
0.5956423 -0.08919923 0.3960135 -0.39457774 -0.365482 0.71186674 0.6739661 -0.21882376
0.51014763 -0.26186916 0.48137394 0.1100628 -0.38561037 -0.118541725 -0.32068542 0.5305837
-0.6446073 -0.055434376 0.24916354 -0.058167312 -0.16385111 -0.4699219 0.287249 -0.15109086
-0.6199194 -0.3050638 -0.19134213 -0.47691453 0.310227 0.30577624 -0.07053358 -0.16623919

fc3.weight f4 [64, 64]
00000000: 0178 083d d84d a33f 00c0 85bd c5d9 42be
00000010: b5e2 8f3e 2281 883f 185d 673f 73e3 94bf
00000020: 43a8 ff3e bb77 f13e b916 c73f 3970 b1be
00000030: 0ab7 9bbe f10b a2be a8e6 803f cc5d 393e
00000040: 4014 38be 5f26 873e 9a7a 493f 5a3d 013f
00000050: a87e 573f c0f7 c7be 09c1 5abf 5db2 81bf
00000060: 0fe9 403e f93f 653f ff96 e23e 4cf2 2dbe
00000070: d83a dabc 4a66 0cbf 60b7 123d 1257 50bf
00000080: f03c ecbf a53d 4abe 151e dbbe 05e3 2bbf
00000090: 984d 6f3e b451 4c3f 48e7 733e 5257 163f
000000a0: 467a 773f c372 fb3f 7fc6 633e 1615 05be
000000b0: f32e 95be ac0b 583f 0ada 0f3f 527c 3b3f
000000c0: 5bbf 2d3e c3b1 7b3f bc3d 2a3f f15b 93be
000000d0: 77ac 9bbe 48ee 223e be23 2dc0 9e51 b9bd
000000e0: 08a1 2dbe 356b 2f3e 3f74 f23e 1e24 073f
000000f0: 7bd0 c9bd 3005 1fbf 5fad 22bd 4706 8bbe
00000100: 94aa d0bf abbb 27be 3bb0 0bbe c837 cbbe
00000110: de7e 3cc0 dee6 c0bf 508b 783f 67cb d6be
00000120: 536e f43d 828d ccbe 53d0 2b3f c225 2e3f
00000130: 24e9 a8bd 8ba3 26be 60da ef3e fe1e 813f
00000140: cf12 6bbe f539 56bf 13e1 be3e ea49 0cbf
00000150: 5ac1 0e3d 7c07 dd3e 4c6e b0be 2ab3 ff3e
00000160: 4ad3 65bf aba0 aabf df2a a4be 2b6b a8bf
00000170: 2e68 d23e d157 883f 6f84 3fbf 5ae1 74bf
00000180: bd47 ac3e fcd2 7bbf c054 fcbe 3a27 cabf
00000190: 3262 c8bf 59b5 153f 8c17 6b3b 5d6e 663e
000001a0: e027 23bf 6562 b73e 2983 cabe c3dc 47bf
000001b0: 893e 53bf 8837 e0be fd6f 51bf 949c 3a3d
000001c0: 2da9 fe3e 2ca9 a33e 9a55 8c3d bf26 88be
000001d0: 1b5e 183f 8379 64be 19a3 a63f 71ab 3e3e
000001e0: 5ab6 963d 6e12 433f fd90 10bf f70f 7cbf
000001f0: 8392 1fbf 876a 303e df23 353f 8b50 d33e
00000200: f9c2 87be 2d23 82bf 5a52 71be d3c1 203e
00000210: f168 8dbf 88bf bdbf a3cc 2f3d 491a 0e3f
00000220: a75d 073d 9b32 86bf 552d 19bf 53f7 2cbd
00000230: 00ad 9abf 89a8 5bbe d7b7 14bf 2f97 9d3e
00000240: d9de 043f b8b6 e7bf c81a 03c0 181b 27bd
00000250: 4014 47be f3a1 a4bf be3a d6bd cdc9 db3e
00000260: 35ee 3cbf 0557 5bbf e35e 253e d063 233e
00000270: 57da 383f 9f1c 95bf 5e65 07bf e03f debd
00000280: 6e33 c5bf 814f e23f 3826 4b3d 89be 1a3f
00000290: 527e e5be c013 77be 3b62 1cc0 6fcd e3bd
000002a0: 06be f9be 9b40 3dbf 7ce6 01bd e72f 91be
000002b0: 77f5 723f d401 8c3f 9797 7c3e 6faa 12bf
000002c0: 276c 19bf d53f d7bf cdeb acbd 1290 253e
000002d0: a473 bf3e 721a 70bf b0de 743f 3366 92be
000002e0: a5e3 25bf 38d5 5a3e 822d 60bf eee6 a03f
000002f0: 30e8 21bf e8ee 423f dc9a 1cbe 6ca2 71be
00000300: 7e4a 24bf 5bb2 e33e 779f 113f 7519 82be
00000310: 6b1b ab3e cab4 61bf c424 343f 7f7f 3cbf
00000320: dd8f 3bbf 442b 61bd 5e92 cb3e ec4b 04be
00000330: c2c1 0abf b647 973f 1c93 9ebf fb48 94be
00000340: a2cd a63e ab4b 2cbf 698e f83e b252 06bf
00000350: 8d22 823e 322d 5cbf 9ee3 1b3f 4206 a03f
00000360: 0b65 dfbe fe06 23bd 92ff 0a3f 1810 a83e
00000370: cc6e 893d c29b b73e e73a 253e 780f 93bf
00000380: 9e50 c4bf c387 8ebe 7a51 1e3f 7d4f 98be
00000390: 5026 eebd ddd2 583f 882a d7be d59a 893e
000003a0: 1df3 2abe 379b 8abf bd66 04bf 05b6 3cbd
000003b0: dcd6 dabd 40d8 02bf 3655 93be 2ae7 e23d
000003c0: b110 653f f66c f73e 160d 7abd 7725 63bd
000003d0: 7ace 3f3f 1262 f7bd ec2c 813f 7781 d43e
000003e0: 249c 1cbe 3b4c 01c0 10e3 a63d 5c13 a3be
000003f0: 83b2 87bf e653 b93e 5382 333e 3aef 37bf
0.03331757 1.2758131 -0.06530762 -0.19028385 0.2810265 1.0664408 0.90376425 -1.1631912
0.4993306 0.4716166 1.555381 -0.34655932 -0.30413085 -0.31649736 1.0070391 0.18102187
-0.17976475 0.26396462 0.787027 0.5048424 0.8417764 -0.39056206 -0.854508 -1.0132557
0.18838905 0.8955074 0.44255826 -0.1698696 -0.026639387 -0.5484358 0.03581941 -0.8138286
-1.8456097 -0.19750078 -0.42796388 -0.6714328 0.23369443 0.7981217 0.23818696 0.5872699
0.9667095 1.9644397 0.22243689 -0.12996325 -0.29137382 0.8439281 0.56192076 0.7323657
0.16967528 0.9831812 0.6650045 -0.28781083 -0.30405018 0.1591121 -2.7053065 -0.0904877
-0.1695596 0.1713074 0.47354314 0.52789485 -0.098542176 -0.6211729 -0.03971612 -0.27153227
-1.6302056 -0.16380183 -0.13641445 -0.39690995 -2.9452434 -1.5070455 0.97087574 -0.4195206
0.11935105 -0.39951712 0.6711475 0.68026364 -0.08247593 -0.16273324 0.46846294 1.0087583
-0.22956394 -0.83682185 0.37281093 -0.54800284 0.034852363 0.43169773 -0.3445915 0.4994138
-0.89775527 -1.3330282 -0.32063958 -1.3157705 0.41095108 1.06518 -0.7481145 -0.9565636
0.33648482 -0.9836881 -0.4928341 -1.5793221 -1.5654967 0.5847984 0.003587219 0.22503038
-0.6373272 0.35817257 -0.39553192 -0.7807123 -0.82517296 -0.43792367 -0.81811506 0.04555948
0.49738446 0.31965005 0.06852265 -0.2659206 0.59518594 -0.22311978 1.3018523 0.18620087
0.073589996 0.76199996 -0.56471235 -0.9846186 -0.62332934 0.17228137 0.7075786 0.41272387
-0.2651594 -1.0166985 -0.23566571 0.15698938 -1.104765 -1.4824076 0.042919766 0.5550886
0.0330483 -1.0484194 -0.59834796 -0.042228054 -1.2084045 -0.2145101 -0.5809302 0.30779406
0.5190254 -1.8102636 -2.0485096 -0.040797323 -0.19441319 -1.2861923 -0.10460423 0.429274
-0.73800975 -0.85679656 0.16149478 0.15956044 0.7220816 -1.164936 -0.5288905 -0.10852027
-1.540632 1.7680513 0.049596995 0.60446984 -0.44822937 -0.24128628 -2.4434955 -0.11123168
-0.4877779 -0.73926705 -0.031713948 -0.2835686 0.949058 1.0938058 0.24667202 -0.5729131
-0.5993065 -1.6816355 -0.08443413 0.1616824 0.37392914 -0.9379035 0.95652294 -0.28593597
-0.64800483 0.21370399 -0.8756944 1.2570474 -0.63244915 0.7614579 -0.15293449 -0.23597115
-0.64176166 0.44472012 0.5688395 -0.25410047 0.33419356 -0.8816649 0.703686 -0.73632044
-0.7326639 -0.054972902 0.39760107 -0.12919587 -0.542019 1.181876 -1.2388644 -0.2896193
0.3257876 -0.6730296 0.4854615 -0.52469933 0.25416985 -0.8600646 0.6089419 1.250191
-0.43631777 -0.03980159 0.5429622 0.3282478 0.06710586 0.3586102 0.1613575 -1.1489096
-1.5337102 -0.27837953 0.61843073 -0.29748145 -0.11628401 0.8469675 -0.42024636 0.2687594
-0.16694303 -1.0828618 -0.51719266 -0.046072025 -0.106855124 -0.5111122 -0.28775948 0.11079247
0.89478594 0.48325318 -0.061047636 -0.05545565 0.74924433 -0.12079252 1.0091834 0.41505024
-0.15293938 -2.0202777 0.081487775 -0.31850708 -1.0601352 0.36196822 0.17530183 -0.71849406

fc3.bias f4 [64]
00000000: 27f9 913e 97ee c8bb 295a 75be b7ce 573e
00000010: 3241 67bf efa3 7bbd 63b7 86bc 830b 21bf
00000020: 1f5d 52bd 7963 fcbe 4c14 cc3d f24e 75bf
00000030: 2dbd d63c acdb 853b 8e6c 40bf ac8d 773e
00000040: a439 2f3e f37b 9b3e c1de adbe a42d 34bf
00000050: a4c7 91be 4acb 1f3d 82bc c43e 1863 27be
00000060: b8f0 933e 9916 6e3e 5b0d 243f f6c8 03bf
00000070: ee3a 653e 83d7 183f 1df4 cabe 9cd6 77bf
00000080: 2e45 e73e e630 453f 45a7 1ebe 4992 89be
00000090: 1b71 5bbf 6ca5 04bf 92d9 8a3f 2d88 383f
000000a0: 651f 5a3f d334 69be 4fb0 8cbf 237c 18be
000000b0: 85ae 05be 9720 9dbe 3586 d4be f025 5abe
000000c0: ed65 263d ce4e 323e b9bf 27bf 37ed a63e
000000d0: 2805 c9be 2124 f3be 940a 633e 7ccb 2b3f
000000e0: 7106 9dbe 812d 12bf 5c84 0abd 6c19 4ebe
000000f0: 8461 973e 5720 bb3b f871 e73e 79d6 0e3d
0.285104 -0.0061319578 -0.23960175 0.21074949 -0.90333855 -0.061435636 -0.016444867 -0.6290819
-0.05135834 -0.49294642 0.09964809 -0.95823586 0.026213253 0.004085025 -0.7516564 0.24175137
0.17111832 0.30368003 -0.3395901 -0.7038214 -0.28472626 0.03901223 0.3842507 -0.16346395
0.2889459 0.23250808 0.6408288 -0.5147852 0.22385761 0.59703845 -0.3963937 -0.9681184
0.45169967 0.7702774 -0.15493496 -0.2686942 -0.8571946 -0.51814914 1.0847647 0.7208279
0.85204154 -0.22774057 -1.0991305 -0.14891104 -0.13054855 -0.30688927 -0.41508642 -0.21303535
0.040624548 0.17412874 -0.6552692 0.32602856 -0.39261746 -0.47488502 0.22172004 0.6710737
-0.30668977 -0.57100683 -0.033817634 -0.20126885 0.29566586 0.0057106423 0.4520414 0.034872506

action_out.weight f4 [5, 64]
00000000: caff 49bf d5e9 b23f 3246 5c3f 1e33 10c0
00000010: 87e6 34be 409b c83d 0eec b83e 6a24 a7bf
00000020: f90a 023e 33b6 0d3f 16eb 093f f096 5cbf
00000030: 893e 94bd bb81 63bf 03fe af3f afd5 533e
00000040: 5965 92be 0a54 3bbf b76c 9fbe f151 d5bd
00000050: d476 cabf 5b62 ab3f d565 663f 1634 30bf
00000060: 23a4 103e c21f 2ebe d2be 643f d320 b1bf
00000070: da20 08c0 2d31 12bf b313 a33f fae9 45bf
00000080: 92c0 863f ef28 2ebe e671 94be 04a4 31bf
00000090: 04e3 99bd 16c9 fabe e3d8 d33f 285f ac3f
000000a0: 7ffc d23e 513b 6cbd 4117 11c0 5b46 163d
000000b0: 1320 433e 35b3 dabe 42c2 fbbe 33de b43f
000000c0: 2c09 213f d86e 593f a478 bf3e 0642 94be
000000d0: 2a43 20bf 133d b6be 4038 e53d 88c5 203f
000000e0: ecac 0abf 9d26 96bf 4f50 30bc 4c13 7f3f
000000f0: d476 0bbe 4fbc aabf 9410 fa3e a5c2 ce3f
00000100: 34d6 98bf 7faa 34bf 0b40 8c3f 40ca 9e3f
00000110: 258f fcbe 1e56 87bd 973a 43bf 47ed 00bf
00000120: 68a3 ba3f bef4 e5be 50d5 45be 5cc7 4c3f
00000130: bc79 313c dde4 d83f 676b f1be 61de 6b3f
00000140: 3c99 5bbf 31ba 123d dcd6 89bf 8cce 2c3f
00000150: 2918 86bf ef68 b3bf a3b5 1c3f 53f4 f0bf
00000160: 0861 443f 676b 51bf f206 503f 2350 47bd
00000170: d32b 193f 2899 d03e 752d 2abe a140 d2be
00000180: bd9f 223f 2e4f 113f 53be d53e 6ca4 b63e
00000190: 834f 35bf fcda 10bf f4a1 41be dd26 11bf
000001a0: f544 683e c936 183f cb7e b7bc ec26 3cc0
000001b0: 25c1 e8bf 40b3 1f3f 075b b0bf 226e b43e
000001c0: 77b2 ab3e 25b5 4cbf be59 b13e 8a29 35bf
000001d0: df48 aebf 6588 b83d 3616 63bf eda2 8cbe
000001e0: 580a edbe 83c9 983f ba0b 073d 9425 a9bd
000001f0: a857 c2be 3b58 183f 0fb7 143f 6419 81be
00000200: 81dd 7c3f d083 853f 1180 98bf 5646 33bf
00000210: f5be 1c3c 29eb 893d d9a3 7d3f 91c5 74bd
00000220: 360e bdbf aa29 303f 020c 57bf e25b 45bd
00000230: 14ee 4c3d 0746 05c0 daab 083f 96ed 17bf
00000240: 189f db3f 480c 5fbf d5cc 813f b4ea 38bf
00000250: 4bc8 243d ab28 76be a5c8 2ebf 9481 2cbf
00000260: e9e2 9b3e f33f ae3f f366 2340 8bfe bdbe
00000270: d7fb 56bf 4bf8 91be 4cb2 353f d7d0 a73f
00000280: 2d9a b3bf 6c28 223e b30a dabd 356f c73e
00000290: aa60 a13f 8438 723f 9a08 4fbc 9596 063f
000002a0: 551e c5be 4a96 6f3e a6b5 95bf 8c45 a83f
000002b0: 9480 653f d833 9f3d acce 0a3f 6d03 6e3f
000002c0: 1cad c0be eaa6 193e 2ece 683f 63e6 fd3e
000002d0: 3914 cb3f 8a4a f0be 736e 89bf 84ee 7f3c
000002e0: 483c 403f 4d28 12bf 9856 a83d 9273 cbbe
000002f0: f18f 8dbf cb08 ddbe 5cb4 b6bf 11ff 973f
00000300: 6b51 323e 809d 533e c74a 39be 65e5 253e
00000310: 509f ae3f 8b15 24be 1f53 d9bf 5ade b33e
00000320: 4748 3bbf 37db e6bf 6510 adbf 9044 7e3f
00000330: df28 e63d 6fc8 043f a81d fe3d 8bc5 4e3e
00000340: affa a53e c8c3 3ebf a2af acbf 3e6f 12be
00000350: 5051 a53e 4245 4dbe d118 5ebf e253 6f3e
00000360: ea41 603f 82e5 a23f 33fe 0abe ad99 bdbd
00000370: 393b 853f d444 dcbe dfff 973f 60f1 993f
00000380: 12a7 19bc 512b 1a3f 6a49 5e3e d143 00bf
00000390: 83fb c4be 06f2 b53f 11ca 33bf e403 b03e
000003a0: 69eb 063f 3649 13bf 99c7 43bf 4977 8f3e
000003b0: aae5 bdbf bb7a 91bf 284f 24bf 62dc b3bf
000003c0: 855a d93f 5bb5 58bf b192 31c0 53a3 333f
000003d0: 97a8 4fbf e6bf 693f 62c2 a7bd cc87 bd3f
000003e0: 918f 493e 2033 983f 30c7 433c 56cc dabf
000003f0: 8829 0f3e 764e 563f ce47 aa3e 7c2e c0bd
-0.7890593 1.397761 0.8604461 -2.25312 -0.17666064 0.097952366 0.36117595 -1.3057988
0.12699498 0.5535614 0.5387434 -0.8616781 -0.0723849 -0.8886983 1.3749393 0.20686983
-0.28592947 -0.7317511 -0.3113763 -0.1041602 -1.5817513 1.3389391 0.89999133 -0.68829477
0.14125113 -0.17004302 0.8935367 -1.3838142 -2.127005 -0.57106286 1.2740387 -0.77310145
1.0527518 -0.17007802 -0.28993148 -0.69390893 -0.07514003 -0.4898154 1.6550564 1.3466539
0.41208264 -0.057673756 -2.2670443 0.03668819 0.19055204 -0.4271485 -0.49171644 1.413031
0.6290462 0.8493476 0.3739673 -0.28956622 -0.62602484 -0.3559347 0.111923695 0.6280141
-0.5417011 -1.1730534 -0.010761335 0.9963882 -0.13619548 -1.3338717 0.48840773 1.6153151
-1.194037 -0.70572656 1.0957044 1.2405472 -0.4932796 -0.066082224 -0.76261276 -0.50362056
1.4581118 -0.44913286 -0.19319654 0.799917 0.010832246 1.6944844 -0.47152254 0.921362
-0.8578069 0.035822097 -1.0768695 0.67502666 -1.0476123 -1.4016398 0.61214656 -1.8824562
0.7671056 -0.8180451 0.812606 -0.04866041 0.59832495 0.4074185 -0.16618903 -0.41064933
0.6352499 0.56761444 0.41746768 0.3567232 -0.7082445 -0.56584144 -0.18909436 -0.56699926
0.22682555 0.59458596 -0.022399327 -2.9398756 -1.8183943 0.6238289 -1.3777779 0.35240275
0.33534595 -0.79963905 0.3463878 -0.7076651 -1.3615988 0.0901039 -0.88705766 -0.27468053
-0.46296954 1.1936496 0.032970168 -0.082591206 -0.379575 0.5950963 0.58091825 -0.25214684
0.9877549 1.0430851 -1.1914083 -0.700292 0.009567012 0.06734306 0.99078137 -0.059758727
-1.4769962 0.68813574 -0.840027 -0.04818333 0.050031736 -2.0823991 0.53387225 -0.593469
1.7157927 -0.87128115 1.0140635 -0.7223313 0.040230077 -0.24038951 -0.6827491 -0.6738522
0.30446556 1.3613266 2.5531585 -0.37108263 -0.8397803 -0.28509745 0.70975184 1.3110608
-1.4031426 0.15835732 -0.10646572 0.38952032 1.2607625 0.94617486 -0.012636328 0.5257352
-0.38499704 0.23397174 -1.169606 1.3146224 0.8964932 0.0777356 0.54221606 0.9297398
-0.37632072 0.15005079 0.90939605 0.49589834 1.5865546 -0.4693187 -1.0736831 0.015620831
0.7509198 -0.57092744 0.082196414 -0.3973661 -1.1059552 -0.4317077 -1.4273791 1.1874715
0.17413871 0.2066555 -0.18094932 0.16200788 1.3642368 -0.16023843 -1.6978492 0.35130578
-0.7315716 -1.8035649 -1.3520628 0.9932337 0.11238264 0.5186834 0.12408 0.20192544
0.3241782 -0.7451749 -1.3491099 -0.14300248 0.322886 -0.20045951 -0.86756617 0.23371843
0.87600577 1.272629 -0.13573532 -0.09257827 1.0408698 -0.43021262 1.1874961 1.2026787
-0.009378212 0.60222346 0.21707693 -0.5010348 -0.38473138 1.4214485 -0.70230204 0.34377968
0.5270296 -0.57533586 -0.76476437 0.28020695 -1.4835713 -1.1365579 -0.6418328 -1.405163
1.6980749 -0.84651726 -2.7745783 0.7017109 -0.8111662 0.9130844 -0.081913725 1.4807067
0.19683672 1.1890602 0.0119493455 -1.7093608 0.13980687 0.8371347 0.33257908 -0.09383866

action_out.bias f4 [5]
00000000: eb34 b93e ce48 d43b 5449 083e 60ec 78be
00000010: 483d 57bf
0.36173186 0.0064784056 0.13309222 -0.2430892 -0.8407788
