model/simple_tag/agent_2/critic_params.pkl (torch_old, 51179 bytes, 7 tensors)

fc1.weight f4 [64, 63]
0	0xbd8e0fad	-0.06936584
1	0x3deb0951	0.11476386
2	0x3dccc687	0.099988036
3	0xbe235444	-0.15950114
4	0xbe73994c	-0.23788947
5	0xbde56c25	-0.112022676
6	0xbd5757db	-0.05257402
7	0x3ce7fc28	0.02831848
8	0x3fde9066	1.7387817
9	0xc04caadd	-3.1979287
10	0xbe358f04	-0.17730337
11	0x3f881eae	1.0634363
12	0xbfca2984	-1.579392
13	0x412955df	10.583465
14	0xbe1a44b4	-0.1506527
15	0x3f1ea138	0.6196475
16	0x3eba255f	0.36356637
17	0xbed0dabd	-0.40791884
18	0xba7ceb7e	-0.0009648128
19	0xbecf0a99	-0.40437773
20	0x3e86a5d1	0.26298383
21	0x3e7d4a7a	0.24735442
22	0x3e764867	0.24051057
23	0x3e551f66	0.20812759
24	0xbfe378f0	-1.7771282
25	0x404d8a9b	3.2115848
26	0xbff7d8d1	-1.9363042
27	0x4090b8e1	4.522568
28	0xc095c7ae	-4.680625
29	0x419a69ab	19.301596
30	0x3d7cbb43	0.061702024
31	0x3ef669db	0.48127636
32	0x3d3cde74	0.046110585
33	0xbe93186a	-0.28729564
34	0xbde2fa3a	-0.11082883
35	0x3e9949cc	0.29939115
36	0xbddc3b77	-0.107535295
37	0xbebb6f04	-0.36608136
38	0xbe3a76c7	-0.18209372
39	0xbe6c69b9	-0.23087205
40	0x3e9fede2	0.31236178
41	0xbf8973bc	-1.0738444
42	0x3fe6ed01	1.8041078
43	0xc08fd147	-4.4942966
44	0xc06680c3	-3.601609
45	0x41494643	12.579654
46	0xbd2c9e33	-0.042143058
47	0x3f006173	0.50148696
48	0xbb5a9b80	-0.0033356845
49	0xbbac638b	-0.00526089
50	0xbd3d9752	-0.04628689
51	0x3e52a907	0.20572291
52	0xbce13fff	-0.027496336
53	0xbcd529ae	-0.026020851
54	0x3d7ba361	0.061435107
55	0xbdc02a94	-0.09383121
56	0xbe32c867	-0.1745926
57	0x3e116400	0.14198303
58	0x3cc440b0	0.023956627
59	0xbc4495de	-0.011998622
60	0xbdbcea36	-0.0922436
61	0xbd5f6c76	-0.054546796
62	0x3de4012c	0.11133036
63	0x3f0247ca	0.5089079
64	0xbe32ef69	-0.1747414
65	0x3e0e4bcc	0.13896102
66	0x3e0d488c	0.13797206
67	0xbe8c009b	-0.27344212
68	0x3e35534e	0.1770756
69	0xbdbe8d9f	-0.09304356
70	0xbdbbc0f8	-0.09167665
71	0xc00ca9cc	-2.1978636
72	0x3f3ee431	0.7456694
73	0xc027d3d6	-2.6223044
74	0x3ee8743f	0.4540119
75	0xc22597ae	-41.398125
76	0x42050c48	33.261993
77	0x3d3bae6e	0.045820646
78	0xba78fcab	-0.00094980997
79	0x3c6a4eb3	0.01430099
80	0x3d976d6b	0.07393917
81	0xbcabe3bb	-0.020982614
82	0xbd32b3bc	-0.04362844
83	0x3cc1a935	0.023640255
84	0xbe364b07	-0.17802058
85	0xbec44fb4	-0.3834206
86	0x3db59d10	0.08867848
87	0x40101e92	2.2518659
88	0xbf4875cf	-0.7830476
89	0x3dda1315	0.10648171
90	0x3ee6fb46	0.4511358
91	0xc09b97d0	-4.862282
92	0x3f698476	0.91217744
93	0xbe1dc830	-0.15408397
94	0xbe116d1c	-0.14201778
95	0x3e0bd15d	0.13654085
96	0x3db0448f	0.086068265
97	0xbdbc0282	-0.09180166
98	0xbe41b7e3	-0.18917803
99	0x3e9ff5a1	0.31242087
100	0xbda96b1b	-0.08272382
101	0x3ed81343	0.42202196
102	0xbd6b8cac	-0.057507202
103	0x40220680	2.5316467
104	0xbed6dca5	-0.41965213
105	0xbe563ecb	-0.20922391
106	0xbeff6d9c	-0.49888313
107	0xc0cb5cf1	-6.3550954
108	0x3f9f3360	1.2437553
109	0xbdd38e41	-0.10329867
110	0xbddbbafb	-0.10729023
111	0xbe283328	-0.16425765
112	0xbb5bf305	-0.00335616
113	0x3cebefa8	0.0288008
114	0x3ddf0e33	0.1089138
115	0x3d5cbff5	0.053894002
116	0xbc20c6bc	-0.009813007
117	0x3c9abecc	0.018889807
118	0xbd57d75b	-0.052695613
119	0x3cb130bc	0.021629684
120	0xbd42be7b	-0.047544938
121	0x3d01f9c0	0.03173232
122	0x3d4ecf7e	0.05049085
123	0xbde57470	-0.11203849
124	0x3d6ce848	0.05783871
125	0x3bd00f6c	0.0063494947
126	0x3fbf48e3	1.4944118
127	0x3fecfab3	1.8514007
128	0xbe275da4	-0.16344315
129	0xbe9fd720	-0.31218815
130	0xbf89c144	-1.0762105
131	0x3ecb2e5f	0.39683816
132	0x3e8d14ce	0.27554935
133	0xbe7d8004	-0.24755865
134	0xc08de1ef	-4.43383
135	0xbf165596	-0.58724344
136	0xbf952a59	-1.1653548
137	0xbf854151	-1.0410558
138	0xc03443c4	-2.816636
139	0xc04bb7d7	-3.1830957
140	0xbfadfa8c	-1.3592086
141	0x3f46eb7c	0.7770307
142	0xbea1d2ae	-0.31606048
143	0xbd03e0ac	-0.032196686
144	0xbf597957	-0.84950775
145	0x3e474ab3	0.19462089
146	0xbebdaa26	-0.37043875
147	0x3d2e3697	0.04253253
148	0x3ece5501	0.40299228
149	0xbf825d88	-1.0184793
150	0x409062a7	4.5120425
151	0x3f40f704	0.75376916
152	0x402fb5e2	2.7454762
153	0x3dd71c2d	0.10503421
154	0x3ff08163	1.8789486
155	0xc082db98	-4.089306
156	0xbfad5dee	-1.354429
157	0x3f36a6d8	0.71348333
158	0x3f435389	0.7629934
159	0xbdf044da	-0.117318824
160	0xbea5afbc	-0.32360637
161	0xbeffdfd8	-0.49975467
162	0xbe192749	-0.14956392
163	0xbb641e2d	-0.0034808025
164	0xbd879130	-0.06619489
165	0xbe33fc40	-0.17576694
166	0x3f8f994e	1.121866
167	0x3f84437d	1.0333096
168	0xc030aa14	-2.7603807
169	0xbe41f9bb	-0.18942921
170	0x3e8a1792	0.26971108
171	0xc0b8dcda	-5.7769594
172	0xbfbaa7c4	-1.4582448
173	0x3f499f10	0.78758335
174	0xbd7eb2c5	-0.062182207
175	0x3ebf42e8	0.37355733
176	0xbeae9239	-0.34095934
177	0x3f3882e5	0.7207473
178	0xbd7f9e04	-0.062406555
179	0xbdf3d7e7	-0.119064145
180	0x3ec8734a	0.3915046
181	0x3ec2a862	0.3801909
182	0xbdc2f6be	-0.095197186
183	0xbe11fdbe	-0.14256951
184	0xbd5758f6	-0.052575074
185	0x3f672346	0.902882
186	0xbe72b6f0	-0.23702598
187	0x3b880e71	0.004152112
188	0xbe2f1928	-0.1709944
189	0xbec95ade	-0.3932714
190	0x3e909c6c	0.2824434
191	0xbeceb854	-0.40375006
192	0xbebb9327	-0.36635706
193	0x3ef306b4	0.47466052
194	0x3f1ff420	0.6248188
195	0x3eb5fa9b	0.3554276
196	0x3f18e81d	0.59729177
197	0x40610653	3.516011
198	0x40337874	2.8042269
199	0xbe183db8	-0.14867294
200	0x3f8985f3	1.0744003
201	0xc0fe8d63	-7.954759
202	0xc10610d6	-8.37911
203	0xbfd5876b	-1.6681951
204	0xbf828d03	-1.0199283
205	0x407c13ca	3.9387078
206	0x3f9dcfa8	1.2328997
207	0x3f534688	0.825295
208	0x3f403fdf	0.7509746
209	0xbed31ce4	-0.4123298
210	0xbf1e12ba	-0.61747324
211	0xbf217403	-0.63067645
212	0xbf3a4ab8	-0.7277026
213	0xc05f6a57	-3.4908655
214	0xc02b90de	-2.680717
215	0xc031bced	-2.777156
216	0xbf68d650	-0.90952015
217	0xc123f81b	-10.248073
218	0xc0d7d531	-6.7447743
219	0xbfde4a25	-1.7366377
220	0xbf9723b5	-1.1807772
221	0xbef6cd03	-0.48203287
222	0x3e8aac9c	0.27084816
223	0xbe55504c	-0.20831412
224	0xbe8f98a1	-0.28046134
225	0x3e2ea0ef	0.17053579
226	0x3cd2526a	0.025674064
227	0x3df9bf35	0.12194673
228	0x3e558745	0.20852382
229	0x3d5a9817	0.0533677
230	0xbf6446a9	-0.8917032
231	0x4030ac49	2.7605155
232	0x3f80f8c2	1.0075915
233	0xc0a4addc	-5.146223
234	0xc0aaeb14	-5.341196
235	0xbff30933	-1.8987182
236	0xbf96077d	-1.1721035
237	0xbdad40cb	-0.08459624
238	0x3dab2036	0.08355753
239	0xbe9d857a	-0.30765897
240	0x3e5e4d5c	0.21709198
241	0xbe975944	-0.29560292
242	0xbce5fdd5	-0.028075138
243	0x3fabced2	1.3422492
244	0xbfc3e457	-1.5304059
245	0x3ed8a67c	0.42314517
246	0xbea3bd86	-0.31980532
247	0x3ddca91e	0.10774444
248	0xbdf05274	-0.11734477
249	0x3ec8f103	0.39246377
250	0xbc0ff4ff	-0.008786439
251	0x3ca972d4	0.020684637
252	0xbf7af2f8	-0.9802699
253	0xbeca4683	-0.3950692
254	0x3e29e701	0.16592027
255	0x3fc8e73c	1.5695567

fc1.bias f4 [64]
0	0x3f8bd1f5	1.0923449
1	0x3f57fd14	0.8437054
2	0xc092bce7	-4.5855594
3	0xbedc291d	-0.43000117
4	0xc0e22d1f	-7.068008
5	0xbe98a1a9	-0.29810837
6	0xc1453135	-12.324513
7	0x3e610728	0.21975386
8	0x41253094	10.32436
9	0xbea3337e	-0.31875223
10	0x3fccb454	1.5992532
11	0x406a7dea	3.6639352
12	0xbdf98a84	-0.12184623
13	0xc0df6c33	-6.981958
14	0x3ebe9974	0.3722645
15	0xbfba133c	-1.453712
16	0xbe28c92c	-0.16482991
17	0x3eec4f8a	0.46154433
18	0xbf02f0fb	-0.51148957
19	0xbf073008	-0.52807665
20	0xbd88c599	-0.06678314
21	0x3fbbf2cb	1.468347
22	0xc1807ba4	-16.060371
23	0xbfc4dd07	-1.5379952
24	0xc0387f00	-2.8827515
25	0xc15ea96b	-13.916362
26	0xc14c482b	-12.767619
27	0xbf11f1c5	-0.57009536
28	0xbeadff44	-0.33983815
29	0xc0dfb5f6	-6.990962
30	0xbeeac243	-0.45851335
31	0x418e604c	17.79702
32	0xbfcad070	-1.584486
33	0xc181b16e	-16.211636
34	0x3f5f31ac	0.8718517
35	0xbe4c8fef	-0.19976781
36	0x4040fe65	3.015527
37	0xc0ad4c61	-5.4155736
38	0xc1608da5	-14.034581
39	0xbf8bc698	-1.0919981
40	0xc00158a7	-2.021036
41	0x3ec79a1b	0.3898476
42	0xc101b9bf	-8.107848
43	0xc14a7773	-12.654162
44	0xbe559bd7	-0.2086023
45	0xc1581904	-13.506107
46	0xc0cf516d	-6.4786897
47	0xbef236d9	-0.4730747
48	0xbea685aa	-0.32523853
49	0xbf94301f	-1.1577185
50	0xbf66c6c3	-0.90147036
51	0xbf916077	-1.1357564
52	0xc0d9eb7c	-6.8099957
53	0x3f2d761c	0.67758346
54	0xbf2ac336	-0.6670412
55	0xc086dc33	-4.21438
56	0xc105fbb8	-8.373955
57	0x418cfb35	17.62266
58	0x3f829bdc	1.0203815
59	0xbf2aecb7	-0.6676745
60	0xc04e89de	-3.2271647
61	0x411d8ff3	9.847644
62	0xc0ab281e	-5.348647
63	0x40967856	4.7021894

fc2.weight f4 [64, 64]
0	0xbe60872f	-0.21926568
1	0x3f9ce1e6	1.2256439
2	0xbe623368	-0.22089922
3	0xbe6700dc	-0.22558922
4	0x3f5d8677	0.865333
5	0xbf0af57c	-0.5428083
6	0x3db77aa9	0.089589424
7	0x3e6bfa83	0.23044781
8	0xbfa43267	-1.2827882
9	0xbf920cb8	-1.1410131
10	0xbf70341f	-0.9382953
11	0x3d93c254	0.072147995
12	0x3f0c6132	0.5483581
13	0x3f2875b7	0.6580462
14	0x3fba6d11	1.4564534
15	0xbf8bd005	-1.0922858
16	0xbf015451	-0.5051928
17	0x3f1e6122	0.6186696
18	0x400a5e3e	2.162002
19	0xbf8bd047	-1.0922936
20	0x3f78f93e	0.97255313
21	0x4009b2ee	2.151546
22	0x40c0e765	6.0282464
23	0x3f6d97dd	0.9280985
24	0xbe71698e	-0.23575422
25	0xc01fbb4a	-2.4958062
26	0x40431a29	3.0484717
27	0x3d58a915	0.052895624
28	0x3f70b754	0.94029737
29	0x3eb0aebe	0.34508318
30	0x3d09bb1f	0.03362572
31	0xbfa5df7b	-1.2958826
32	0xbfb91e8e	-1.446245
33	0xbfc88351	-1.5665075
34	0x3abfdd93	0.0014638178
35	0x3f82a3d4	1.0206246
36	0x3ed0eca4	0.40805542
37	0x3f13b56e	0.57698715
38	0x3f151a90	0.58243656
39	0x3f21b0f4	0.63160634
40	0xbf30ceb0	-0.6906538
41	0xbe4e1199	-0.201239
42	0xbf4824bd	-0.7818106
43	0x40c396b6	6.1121473
44	0x4004b5f5	2.0736058
45	0xbf28dac8	-0.65958834
46	0x3ea34c75	0.3189427
47	0xc00aa983	-2.1665962
48	0x3d8b400c	0.06799325
49	0xbf911a69	-1.1336185
50	0xbfe00427	-1.7501267
51	0x3df4e16b	0.119570576
52	0xbc927454	-0.017877735
53	0xbfd5b635	-1.669623
54	0xbe7e522b	-0.24836032
55	0x3f44060e	0.7657174
56	0x3f5c72fe	0.86112964
57	0xbe2e8055	-0.17041142
58	0x3f9cf33a	1.2261727
59	0x3e72ab94	0.23698264
60	0x3efd9986	0.49531192
61	0x3f3b0509	0.7305456
62	0xbd563269	-0.05229417
63	0x3f22f9f7	0.63662666
64	0xbfb49ac9	-1.4109737
65	0x3f9a0bd4	1.203486
66	0xbe11492d	-0.1418807
67	0x3f70bdc7	0.9403958
68	0x3ed8c1fc	0.42335498
69	0xbec10004	-0.37695324
70	0xbf2bb52c	-0.6707332
71	0x3dd98c49	0.106224604
72	0xbe648b99	-0.22318877
73	0x40863937	4.194484
74	0x402dfbc7	2.7184923
75	0x3f11b448	0.5691571
76	0xbeed3308	-0.46327996
77	0x3dc87743	0.09788372
78	0x3f73969d	0.9515169
79	0x3fc508dc	1.5393329
80	0xbed4b5eb	-0.41545042
81	0xbe8de4fe	-0.2771377
82	0xbf529ff6	-0.8227533
83	0x3f6d086a	0.92590964
84	0xbf831f54	-1.0243936
85	0x3f27f0e2	0.65601933
86	0x3fe41d4a	1.7821438
87	0x3eae8c4a	0.34091407
88	0x3d97455c	0.07386276
89	0xbe3ec3b5	-0.18629344
90	0xbd9c9ff2	-0.07647695
91	0xbf0af0f4	-0.54273915
92	0xbf819177	-1.0122517
93	0x3eb5bbd4	0.35494864
94	0xbf1279de	-0.57217205
95	0xbf6d8882	-0.9278642
96	0x3c08472a	0.008317748
97	0xc003f179	-2.0616133
98	0x4042e69e	3.0453258
99	0x3e867683	0.26262292
100	0xbf3cc0e3	-0.7373182
101	0x3eafe518	0.34354472
102	0x3f9c10fc	1.2192683
103	0xbf6dcc74	-0.92890096
104	0x3d0d0420	0.034427762
105	0x3f55b0db	0.83472985
106	0x3fc8735e	1.5660207
107	0xbfcf2305	-1.6182562
108	0x3fa2d459	1.2721053
109	0xbf1dcc2f	-0.61639684
110	0xbee4f1e1	-0.4471579
111	0x3f6686f9	0.900497
112	0x3c98f5fc	0.018671982
113	0xbdfda745	-0.1238542
114	0xc00a7403	-2.1633308
115	0x3e8b705e	0.27234167
116	0x3e87950d	0.26480904
117	0xbf792067	-0.9731507
118	0x3f2ff79c	0.68737197
119	0x3ef16a9c	0.4715165
120	0xbb78b4ab	-0.0037949483
121	0xbed4daca	-0.41573173
122	0xbe7870b3	-0.24261741
123	0x3f3d26c8	0.738873
124	0xbe18ffe9	-0.14941372
125	0x3ed19e01	0.4094086
126	0x3e04fc99	0.12986983
127	0xbed12397	-0.40847465
128	0xbff1a080	-1.8877106
129	0x3f3d0d7a	0.7384869
130	0x3f2f63bc	0.6851156
131	0xbe50ff62	-0.20409921
132	0x3cc868ee	0.024464097
133	0x3f1d63af	0.6148023
134	0x3d409d45	0.047024984
135	0xbda4a530	-0.080393195
136	0xbf263505	-0.6492465
137	0xbf5cacef	-0.86201376
138	0xbe1539fb	-0.14572899
139	0xbe2fce99	-0.17168655
140	0xbeeb392c	-0.45942056
141	0xbecdc848	-0.40191865
142	0xbfc6a1da	-1.5518143
143	0xbf34fc0f	-0.7069711
144	0xbf53414c	-0.8252151
145	0xbee5b34e	-0.4486336
146	0x401cd156	2.4502769
147	0xbfa1550f	-1.2604083
148	0x3f9dde7a	1.233352
149	0xc03c456e	-2.9417377
150	0xbf2dd7ca	-0.6790739
151	0x3fd5f420	1.6715126
152	0xbec19f0e	-0.37816662
153	0xc011f908	-2.2808247
154	0x3f8547fe	1.0412595
155	0x3e84c0ea	0.25928432
156	0x3fe0e677	1.7570332
157	0x3fe5045b	1.7891954
158	0x3f4cc726	0.79991376
159	0x3f9cdbec	1.2254615
160	0xbddbf149	-0.10739381
161	0x40025037	2.036146
162	0xc007cba7	-2.121805
163	0x3ef2da60	0.47432232
164	0xbfcd656b	-1.6046575
165	0xbf863191	-1.0483876
166	0x3c25d0a2	0.010120543
167	0x3f8aaa37	1.0833195
168	0xbf31a7e2	-0.69396794
169	0x3f0d8a2b	0.5528895
170	0x3fcacaa4	1.5843091
171	0x3fc20ba6	1.5159805
172	0x3e80f41f	0.2518625
173	0xbcf0087f	-0.029300926
174	0x3f1c1da5	0.60982734
175	0xc0212123	-2.5176475
176	0xbf330fc0	-0.6994591
177	0x3b193690	0.002337847
178	0x3fb84919	1.4397308
179	0x3d03b692	0.032156534
180	0xbedaba4b	-0.42720255
181	0xbe301f00	-0.17199326
182	0x3f277b28	0.65422297
183	0x3e04b306	0.12958917
184	0x3f01c619	0.506929
185	0x3ea5440c	0.32278478
186	0xbf05f335	-0.5232423
187	0xbe814de8	-0.2525475
188	0xbf1661b6	-0.58742845
189	0x3eae856f	0.34086177
190	0xbf1c3285	-0.61014587
191	0x3e96e529	0.2947171
192	0x40037c8b	2.0544765
193	0xbe13142f	-0.14363168
194	0x3eb506d9	0.35356787
195	0x3f8a5fee	1.0810525
196	0x3f605bba	0.87639964
197	0x3f4ef5d8	0.8084388
198	0xbfc101ec	-1.5078712
199	0xbe5a5d16	-0.21324572
200	0x3f0ff0c1	0.56226736
201	0xbe1cc7e7	-0.15310632
202	0x3ef05c7f	0.4694557
203	0xbec65f19	-0.3874443
204	0x3eb56ae1	0.35433105
205	0xbc6f35f5	-0.014600267
206	0x3e6fcc21	0.23417713
207	0xbf27abf0	-0.6549673
208	0x3f7f0d49	0.99629647
209	0x3f9d7f1b	1.2304415
210	0xbe24c926	-0.16092357
211	0xbf8e6bc6	-1.112664
212	0x3e82e519	0.25565413
213	0xbf74118a	-0.9533926
214	0x3f230db5	0.6369279
215	0xbfa753b9	-1.3072425
216	0xbdd2245b	-0.102608405
217	0x3fb78c09	1.433961
218	0xbf137348	-0.5759778
219	0x3f9d82c9	1.2305537
220	0x3e0a0a72	0.13480547
221	0xbf59a83e	-0.8502234
222	0x3f8b0274	1.0860124
223	0xbd427992	-0.04747922
224	0x3dc8d9b7	0.09807151
225	0xbfb42848	-1.4074793
226	0x3e81365a	0.2523678
227	0x3e73e02b	0.23815982
228	0xbfd39ca1	-1.6532174
229	0x3fd1f565	1.6403013
230	0x3edb2f38	0.42809463
231	0x3ee13f47	0.4399359
232	0xbebb28cd	-0.36554566
233	0xbfa611c8	-1.2974176
234	0xbbf9bc51	-0.007621326
235	0xc099a6d9	-4.801617
236	0xbf441e89	-0.7660909
237	0x3e24b1cc	0.16083449
238	0xbfd4cf9e	-1.662586
239	0xbfaf0e1d	-1.3676182
240	0x3e439a88	0.19101918
241	0xbedddcb0	-0.43332434
242	0xbfaa5f1a	-1.3310273
243	0x3ed03e0d	0.4067234
244	0xbf4b1dab	-0.79342145
245	0xbf3862a5	-0.7202552
246	0x3f241bce	0.64104927
247	0x3e71a134	0.2359665
248	0x3f870918	1.054965
249	0xbc11a3e2	-0.00888917
250	0x3f68b154	0.9089558
251	0x40008ed0	2.0087166
252	0x3f921106	1.1411445
253	0xbe0837d0	-0.13302541
254	0x3e591ec9	0.2120315
255	0x3df6f4e2	0.120584264

fc2.bias f4 [64]
0	0xc0940b3b	-4.626371
1	0xc10e12f7	-8.87963
2	0x411cc7e9	9.798806
3	0x407d108a	3.9541345
4	0xc09af01a	-4.8418093
5	0x401480b6	2.320356
6	0xc02b0b8b	-2.6725795
7	0x3e4ea0c6	0.20178518
8	0x3fb2c9d3	1.3967842
9	0xc01062b6	-2.2560248
10	0xc075e784	-3.8422556
11	0x3f56868f	0.8379907
12	0x40eca6aa	7.3953447
13	0x4157f88e	13.498182
14	0xc0a0a361	-5.0199437
15	0x413080ca	11.031443
16	0xc05db31e	-3.4640574
17	0x3f4dc0d9	0.8037239
18	0xbf439a0e	-0.76406944
19	0x4171f2e6	15.121801
20	0x418d05f4	17.627907
21	0xc033deb4	-2.8104677
22	0xc046182e	-3.0952258
23	0x413cf5fc	11.810055
24	0x41098a79	8.596307
25	0xc0d2fd73	-6.5934386
26	0x41638062	14.218843
27	0xbed45b5c	-0.41475952
28	0xc02778a0	-2.6167374
29	0x4153723d	13.21539
30	0xbf0d0f83	-0.55101794
31	0xc0a8de8c	-5.2771664
32	0xc031e5b0	-2.779644
33	0x3f726eb0	0.94700146
34	0x3ff355b7	1.9010533
35	0x40b32339	5.5980496
36	0xc08b2898	-4.3487053
37	0xc034c484	-2.8244944
38	0x40f27724	7.5770435
39	0xc0365c6f	-2.8493917
40	0xc0a6495f	-5.1964564
41	0xbf8bc6b7	-1.0920018
42	0x405cdb8f	3.4509008
43	0x40c55aad	6.167319
44	0xc00bf943	-2.1870887
45	0xc135d469	-11.364358
46	0x3f77c584	0.9678576
47	0xbfb6bfb3	-1.4277252
48	0xc070fbc1	-3.7653658
49	0x3fc61e69	1.547803
50	0xbf871f29	-1.0556384
51	0xc0871bd8	-4.222149
52	0x40b48649	5.641392
53	0xc0ddf4d2	-6.9361353
54	0xc030a4fa	-2.7600694
55	0xc0c69de5	-6.206774
56	0xc09084e5	-4.5162225
57	0xbf311683	-0.69174975
58	0xbfac41d1	-1.3457586
59	0xbed5120d	-0.41615334
60	0x407f857e	3.9925227
61	0x3f74786d	0.95496255
62	0x40939905	4.612429
63	0xc0123c06	-2.2849135

fc3.weight f4 [64, 64]
0	0xc0528f18	-3.2899837
1	0x3f66d4fe	0.9016875
2	0xbf9af94d	-1.210733
3	0xc02a9f60	-2.6659775
4	0x3d0996ec	0.033591196
5	0x3fee6d7d	1.8627163
6	0x3f8eeffe	1.116699
7	0xbdb57f7a	-0.08862205
8	0xc0354b0f	-2.8327062
9	0xc042af6a	-3.0419564
10	0xc05cca87	-3.4498613
11	0xc092106b	-4.564504
12	0x3f59cfb2	0.8508254
13	0xc0e8b8d2	-7.272561
14	0xbe262074	-0.16223317
15	0xbd03bcf0	-0.032162607
16	0x3ffad95f	1.9597586
17	0x3d312b9c	0.04325448
18	0xc0a232b1	-5.068688
19	0x3fe94173	1.8223099
20	0xbef232bf	-0.4730434
21	0xc00963a8	-2.1467075
22	0xc0c3e75f	-6.1219935
23	0xc001c32a	-2.0275369
24	0x3ff7beef	1.9355143
25	0xbffe8ac0	-1.9886093
26	0xc03266dd	-2.7875283
27	0xc08483ed	-4.141104
28	0x3f28054f	0.656331
29	0xbfd39c80	-1.6532135
30	0x3fa5ff5b	1.2968553
31	0x3f394653	0.7237293
32	0x3f350c6f	0.707221
33	0xc0780bfd	-3.8757317
34	0xbe702241	-0.23450567
35	0xc095e58e	-4.684272
36	0xbffa91e4	-1.9575772
37	0xbd705d9f	-0.058683034
38	0xbee271de	-0.442275
39	0xc0106c8f	-2.256626
40	0xbe39e147	-0.18152343
41	0xbe8b7b6f	-0.2724261
42	0x3fec353c	1.8453746
43	0xbef0bb18	-0.4701774
44	0x401dce56	2.4657187
45	0xc0149846	-2.321794
46	0xbfbe965f	-1.488964
47	0xc0978c78	-4.735897
48	0x3d9e46ed	0.07728372
49	0xbfb796c8	-1.434289
50	0xbf5cb3f4	-0.86212087
51	0xbf7feb78	-0.9996867
52	0x3ef65794	0.48113692
53	0xbf55cd70	-0.835166
54	0xbf36de69	-0.7143312
55	0x3d10f188	0.035386592
56	0x3ef915b3	0.48649368
57	0xbea6ddcd	-0.32591096
58	0xbe5a0043	-0.21289162
59	0xbff7ea62	-1.9368403
60	0x3d4562b1	0.048189823
61	0xbc6815ae	-0.014165325
62	0x3f783046	0.9694866
63	0x3f4ebae3	0.80753917
64	0xc044f57f	-3.077484
65	0x3d731193	0.059342932
66	0xbeed75fb	-0.46379074
67	0x3c58d903	0.013235333
68	0xbfa172e6	-1.2613189
69	0x401c4bbe	2.442123
70	0x4098cbd5	4.774882
71	0xbdb51794	-0.08842388
72	0x3b829d6f	0.0039860527
73	0x3e39ea44	0.18155771
74	0xbf10ac16	-0.5651258
75	0x3f91161e	1.1334875
76	0xc02c7a63	-2.69497
77	0xbfdf19c4	-1.7429738
78	0xbfe25dac	-1.7684836
79	0xbed2f1a5	-0.41199985
80	0xc043e1f6	-3.0606666
81	0x3ec4c2a4	0.3842975
82	0xc0523544	-3.284501
83	0xc017186b	-2.3608654
84	0xbf32b8bd	-0.6981314
85	0x3fbc1dd0	1.4696598
86	0xc083f1e5	-4.123278
87	0x3f191115	0.5979169
88	0xbfff5191	-1.9946767
89	0xbd3efe8d	-0.046629477
90	0x40254b23	2.582711
91	0x3fa1c169	1.2637149
92	0x3f411a3f	0.75430673
93	0xbfb5e29a	-1.4209778
94	0x3f6ab366	0.9167999
95	0x3f096365	0.5366729
96	0xc00b5475	-2.1770298
97	0x4006e2fa	2.1076035
98	0x3eed1f66	0.46313018
99	0x3f734cb1	0.95038897
100	0x3f3ecb60	0.74529076
101	0x3f2b5303	0.6692354
102	0x3e51490d	0.20438023
103	0xbf9ded0d	-1.2337967
104	0xbfa198a4	-1.2624707
105	0xbd1b129f	-0.037859555
106	0x3e9ea1e9	0.30982903
107	0xbdca77c4	-0.09886125
108	0x4027fb41	2.6247103
109	0x3e0ae811	0.13565089
110	0x4018b174	2.3858309
111	0xbfb03f28	-1.3769274
112	0xbba04fb3	-0.0048923134
113	0xbffd3cee	-1.9784219
114	0xbf111c14	-0.5668347
115	0xbbe49cff	-0.006976723
116	0x3fa02d58	1.2513838
117	0xbffded45	-1.9838034
118	0x3f25c2e9	0.64750534
119	0x401f94c1	2.4934542
120	0x3fde703e	1.7378004
121	0x3f741e49	0.9535871
122	0x3ecc781b	0.39935383
123	0x3f72f961	0.9491177
124	0xbf5aef22	-0.8552114
125	0xbeac6fb5	-0.33678976
126	0xbf9f22c2	-1.2432482
127	0xbd47314a	-0.04863099
128	0xc002ff0c	-2.0468168
129	0xbe6ca1f1	-0.2310865
130	0xbfa0c2ef	-1.2559489
131	0xbf748593	-0.9551632
132	0x3f0f8a1a	0.560701
133	0xc041029c	-3.0157843
134	0x403a5950	2.9117012
135	0xbc76874b	-0.015046905
136	0xc03e0e53	-2.9696243
137	0xbea5afa3	-0.32360563
138	0xbf955159	-1.166545
139	0xbf94393c	-1.1579967
140	0xc0419719	-3.0248473
141	0xbf88b237	-1.0679387
142	0x3e7cacb2	0.24675253
143	0xc0496028	-3.146494
144	0x3f0b8af5	0.54508907
145	0xbff090dc	-1.8794208
146	0xc0a4ce63	-5.1501937
147	0xbf8f276d	-1.1183907
148	0x3f35d05f	0.71021074
149	0xbfae2da0	-1.3607674
150	0x3faa1c69	1.328992
151	0x3ea6a2bf	0.3254604
152	0xbfcab59f	-1.5836676
153	0xbf042354	-0.51616406
154	0xc03a3b3d	-2.9098656
155	0x3f6b023b	0.9180028
156	0x3e596068	0.21228182
157	0xc039d87d	-2.9038384
158	0xc082c3f0	-4.086418
159	0xbf6263f1	-0.8843375
160	0xbf1c1a93	-0.6097805
161	0x3fdf9c33	1.7469543
162	0xbfd66834	-1.675055
163	0xbf094739	-0.536243
164	0xbdc17196	-0.09445493
165	0x3e8500e7	0.2597725
166	0xc076ea71	-3.8580592
167	0xbfe7c12d	-1.8105828
168	0x3fcc40e6	1.5957305
169	0xbeabf005	-0.33581558
170	0xbefbecb4	-0.49204028
171	0x3f27708f	0.65406126
172	0xbffb7451	-1.9644872
173	0x3f87df41	1.0615007
174	0x4046e492	3.1077008
175	0xbfb01cba	-1.3758767
176	0xbf924f08	-1.1430368
177	0xc0417779	-3.022917
178	0x3fdcd3b6	1.7252109
179	0xc07ea84e	-3.9790225
180	0xc08dc2fb	-4.4300513
181	0x3f2da3c9	0.6782804
182	0xbe9de4c2	-0.3083859
183	0xbfaa61ae	-1.331106
184	0x3dafdd32	0.085871115
185	0xbfb3077b	-1.3986658
186	0xbfdf05fd	-1.7423702
187	0x3e4886e5	0.19582708
188	0x3f4b1d0b	0.7934119
189	0xbf84c30e	-1.0372026
190	0xbe8c3c4c	-0.27389753
191	0x3f426992	0.7594234
192	0xbf9a9c14	-1.2078881
193	0xbf84e83a	-1.038337
194	0xc001bf8a	-2.0273156
195	0xbf054ab6	-0.52067125
196	0xbcb4d92f	-0.022076217
197	0xbf1ea47f	-0.6196975
198	0x3e3d7abf	0.18503855
199	0x3caf4af8	0.021398053
200	0x3ea91be4	0.3302909
201	0x3e1012bf	0.14069651
202	0xbeba7024	-0.36413682
203	0xbe0346a2	-0.12819913
204	0xbe841393	-0.25796184
205	0xbf3ec572	-0.7452003
206	0xbf077b0d	-0.52922136
207	0xbfe0fd71	-1.7577344
208	0x3d9e423d	0.07727478
209	0xc0100862	-2.2505116
210	0x3e57c0a4	0.2106958
211	0x3f88c73d	1.0685803
212	0xbfb1b7e7	-1.3884248
213	0x3f7a5fc1	0.9780236
214	0xbf7984bf	-0.9746818
215	0xbf17f5f9	-0.593597
216	0xbde5e535	-0.112253584
217	0xbf6215f3	-0.8831474
218	0xbf7f2624	-0.9966757
219	0xbf3524f8	-0.70759535
220	0xbf8a16c8	-1.0788202
221	0x3ec28e7e	0.37999338
222	0xbf1839a6	-0.59462965
223	0x3f44e83b	0.76916856
224	0xbf85835e	-1.0430715
225	0x3f9b13f0	1.211546
226	0x3f49aef0	0.7878256
227	0x3e816af0	0.252769
228	0xbecc7c1f	-0.39938447
229	0x3fbdec28	1.4837694
230	0xbfb666a4	-1.4250073
231	0xbf3b146a	-0.73078024
232	0xbed540c2	-0.4165097
233	0xbf83358d	-1.0250717
234	0xbf9e3018	-1.2358427
235	0xbfadf7bc	-1.3591228
236	0xbe40d1fb	-0.18830101
237	0xbeb3a07b	-0.35083374
238	0x3f5e988d	0.86951524
239	0xbfc24506	-1.5177314
240	0xc01a1b8b	-2.407931
241	0xbd39b4d6	-0.045338474
242	0xbf4fe97f	-0.8121566
243	0xbdf384c6	-0.11890559
244	0xbef951c4	-0.48695195
245	0xbeca65ae	-0.395307
246	0x3eff6bec	0.49887025
247	0x3e3f1503	0.18660359
248	0xbe9de6f1	-0.30840257
249	0x3f4791dc	0.7795694
250	0x3f66b24b	0.90115803
251	0x3ec739fc	0.38911426
252	0xbfa25539	-1.2682258
253	0xbf10e803	-0.5660402
254	0xbe733319	-0.23749961
255	0x3cd13942	0.025539998

fc3.bias f4 [64]
0	0x402df7ef	2.7182577
1	0x3fba005a	1.4531357
2	0x3f9b5be8	1.2137423
3	0xc0a0db22	-5.0267496
4	0x4172fc9e	15.186674
5	0x403d865a	2.9613252
6	0xc080e647	-4.02811
7	0x4190a202	18.079105
8	0xc0b6ba68	-5.7102547
9	0x40287cbb	2.632613
10	0x40718ad4	3.7740984
11	0x3fd8152b	1.688146
12	0xbf445c12	-0.7670299
13	0xbfba3d51	-1.4549962
14	0x418d6c3e	17.677853
15	0xc119b4ad	-9.60661
16	0x3fc7890a	1.5588696
17	0x41360d65	11.37827
18	0x4158afaa	13.542887
19	0xbff2a49b	-1.8956484
20	0xbf1ea505	-0.6197055
21	0x4058ca70	3.3873558
22	0xbfc973ca	-1.5738461
23	0xc08bcd66	-4.368823
24	0xbf906a66	-1.128247
25	0xbf71f552	-0.94514954
26	0x3ef5344f	0.4789147
27	0x41229db0	10.163498
28	0xc00933d2	-2.1437879
29	0x41473c93	12.452289
30	0xbf4a3cb2	-0.78998864
31	0xc02d51a5	-2.7081082
32	0x3f1e8ac6	0.619305
33	0x402e4b21	2.7233355
34	0x40a08812	5.01661
35	0x4186d61e	16.85455
36	0x3e0d61e2	0.1380687
37	0xbf10d0c8	-0.56568575
38	0xc06dfb0e	-3.7184482
39	0xc00c3137	-2.1905038
40	0x403aeb1f	2.9206007
41	0xbeb39470	-0.35074186
42	0xc0830681	-4.094544
43	0xbfed8fd7	-1.8559521
44	0x3f5a4be1	0.8527203
45	0x40933cfd	4.601195
46	0xc09b8321	-4.859757
47	0xc021403f	-2.5195463
48	0xc033fecd	-2.8124268
49	0x400e74ec	2.2258863
50	0xbff1f749	-1.890359
51	0xc01d81d7	-2.4610498
52	0xbe3fcb2b	-0.18729846
53	0x3efc092f	0.49225757
54	0xc106cf57	-8.42562
55	0x3c92ecb2	0.01793513
56	0x3d329454	0.043598488
57	0xc08b51db	-4.353742
58	0x3fc3e0e8	1.5303011
59	0xbf259e4c	-0.64694667
60	0xbfa0781a	-1.2536652
61	0xbcda20a3	-0.02662689
62	0xc0477374	-3.1164217
63	0xbe502d2b	-0.2032973

q_out.weight f4 [1, 64]
0	0xbe7a28fb	-0.24429695
1	0xbde2d6a9	-0.110760994
2	0x3ea78c3e	0.32724184
3	0xbd22e833	-0.039772224
4	0x3dad12a4	0.08450821
5	0x3e4ed11b	0.20196955
6	0xbc9d6b48	-0.019216195
7	0x3e4bea83	0.19913678
8	0xbda333ac	-0.0796884
9	0xbe815740	-0.2526188
10	0x3f25979a	0.6468445
11	0xbd38ce17	-0.045118418
12	0xbf9babfb	-1.2161859
13	0x3c9d9fc4	0.019241221
14	0x3ee81433	0.4532791
15	0xbf128019	-0.5722671
16	0xbe9ad549	-0.3024085
17	0x3da40af5	0.080099024
18	0x3efb80f8	0.49121833
19	0x3f34403c	0.70410514
20	0x3c471534	0.012151051
21	0x3df60370	0.120123744
22	0xbeeadb85	-0.45870605
23	0xbe1d7e33	-0.15380172
24	0xbfc7a394	-1.5596795
25	0xbe3f7628	-0.18697417
26	0xbdab4f0c	-0.08364686
27	0x3dddf677	0.10838025
28	0x3e95cc2d	0.29257336
29	0x3e21f80a	0.15817276
30	0x3e76cb05	0.24100883
31	0xbeeb5ccd	-0.4596924
32	0x3fcba2ef	1.5909098
33	0xbd7195ca	-0.05898074
34	0x3dd2737a	0.10275932
35	0x3f2b3c95	0.66889316
36	0xbd9c7ade	-0.076406226
37	0xbf63d4c8	-0.88996553
38	0xbda1e774	-0.07905474
39	0xbe1426bd	-0.14467902
40	0xbe17924d	-0.14801903
41	0xbcee2a75	-0.02907298
42	0x3cb7e3b9	0.022447454
43	0x3cc45508	0.023966327
44	0x3c6f132f	0.014591976
45	0x3ea81b92	0.32833534
46	0xbdf0ab47	-0.117514186
47	0xbe60b8e6	-0.21945533
48	0xbe483e93	-0.1955512
49	0xbddc5c1f	-0.10759758
50	0x3bce0dbf	0.0062882598
51	0xbe073dd5	-0.13207181
52	0x3cbefd58	0.023314163
53	0xbb42328f	-0.0029632186
54	0x3e7eb7b5	0.24874766
55	0x3dbc674e	0.09199391
56	0x3d995ee2	0.074888006
57	0x3e22d607	0.15901957
58	0xbc90e3e9	-0.017686801
59	0xbdd5f91a	-0.10447903
60	0x3f3fb970	0.7489233
61	0xbe2a6371	-0.16639496
62	0xbc2ff1e2	-0.010738822
63	0x3d0b3492	0.03398568
